models/jump_detection_model.pth (torch, 6730 bytes, 5 tensors)

fc1.weight f4 [32, 13]
00000000: 0ff4 58be c853 e83d fcbf 87bd 5496 7bbe
00000010: 7cc1 a6bd 003a 1bbc 183a 51bd e03b c03d
00000020: 9178 35be 5a54 d5bd a895 483e 08c6 2f3e
00000030: 70c8 533d fcad 813e 450a 61bd f11f 293d
00000040: e353 a43d 9898 be3d 5106 66bd 6209 053e
00000050: f40c b6bd 874b 6abe cdb9 713c 552a cf3d
00000060: fef7 58bd f20b 1ebd f60a 393e aff6 3a3e
00000070: fcc4 453e 32e5 933e f880 053e 0bb6 90be
00000080: 6d8f d93d ff75 573e bf5e ff3c ba59 8e3e
00000090: de55 1bbd 41dc 68bd c7a1 f03d 8a73 d9bd
000000a0: 9a15 923e bccf 543e b4eb f6bd 0d13 2cbe
000000b0: 7c1b 50be 404f 91be 05d4 763e 94cd 703e
000000c0: 7828 17bd 0601 ff3d d870 4dbe bb0f c1bd
000000d0: 41b4 263d c906 c2bc c33e 883e 4d7c 9cbe
000000e0: 9b70 403e e12e 693e 97bb 123e e596 6cbd
000000f0: 3b3b 2f3d aa14 1f3e 5f1c 83bd 2326 3cbe
00000100: 0996 5bbd c068 483e 7525 82bd 7ec8 d9bd
00000110: 64c6 0abe e535 90be 5bd1 35bc e331 44be
00000120: f6fa 31be 9229 0f3b 904d 7cbe 53ff 263e
00000130: 8b1f 023e 7b7f 20bd a6b0 423e a4d0 eb3c
00000140: d751 373e 0fbe 95bd 8e16 093e 9e06 46be
00000150: 447f 1ebe 450c 9fbd 7e6b 08be ebe0 d33c
00000160: dff3 503e ad93 743e 79be 8b3e 5d06 7cbd
00000170: ba13 28be 9524 873e 2cb4 10bd b08c 353e
00000180: bc94 1abe 9a7c 6cbe 01cf a03d 4dc9 07bd
00000190: a96b 5fbe 3162 5abe 9006 67be 9746 a63d
000001a0: 46c1 723e 8043 a43e 159f 7a3e 0fd8 aa3d
000001b0: 8a83 19bd 0151 273e f602 c2bc b91d 1e3e
000001c0: cb65 923c ddce 993e 37fe 473d 6dfa ff3d
000001d0: 54f9 d1bd 55db 673e 6b38 893e d017 42be
000001e0: b261 723e ef28 773d b964 0dbc d13b 16be
000001f0: 00c6 51bd ed0f 5e3c 620a 743e b6c1 4fbc
00000200: bd19 133e 1d0c 863d 9f23 e43d adc6 26be
00000210: 5ce9 40be 0a84 fdbc 2b4a 5fbe 9624 d0bb
00000220: 37ef 37be d5a5 72be 6cc9 853e d659 45be
00000230: 3648 aebd 906f 933e d339 fcbd 94a1 11bd
00000240: 3887 b8bd 3c09 343e 3ea5 623e 4f7f 35be
00000250: 4386 70be 40e5 6fbc 5c83 b5bd 2e92 ccbd
00000260: a43a e73d 037d 85be ab6d 81be f886 363d
00000270: cc36 203e 1192 4b3e 2047 6a3e 261f 79bd
00000280: 461b abbc 2d04 013e 5012 4bbd 5b3f 0dbe
00000290: 815b d33d 13d6 43bc ced3 d83c cea5 2d3e
000002a0: a413 4c3c bdca 933e b978 4f3c ac1e f53c
000002b0: 7a4a 603d d639 bb3d ed5c 07be 1a8e 7abe
000002c0: e38b 933e 1f78 a2bd 9a3d 1dbe 9053 87be
000002d0: 5d35 7fbd 7559 0dbe 5076 563e 4a8b e5bd
000002e0: e297 443e e230 443e 4386 32bb faa3 94be
000002f0: 7571 debd c263 d8bd 2dda f8bd 54a5 15be
00000300: e256 febd 3cb4 57bd 8eec 97be b88a e4bc
00000310: 004a 303b 5df3 8abe 75b0 82be b889 c23d
00000320: 4ad8 443e bba3 0bbe 7b08 13be bd3d 81be
00000330: 0a02 fabd 521d 543e 041b 2abe 4811 173e
00000340: 1011 173e 40e9 8e3e b37c 58bc c04d 543e
00000350: 733c 1bbe 9523 813d efc2 83bd e5d9 653e
00000360: 9199 09be 6be9 50be d984 80bc 29e7 b6bc
00000370: ca9e 44be 7a06 6d3e a415 bf3d 65c1 7f3e
00000380: 7afa af3d 645d 363e c81b 873e 049b 643e
00000390: b023 b8bd 086b 543e 1c9a dcbd 4d17 1a3d
000003a0: 3957 973e a9db 66bd f1c6 2d3d 16f5 703d
000003b0: f3b3 023d d26d 423e 1f3a 3c3d e0bc ef3d
000003c0: 17be 20be 861b 123e 2180 ff3d c283 1f3e
000003d0: b8a4 04be 378d ecbd 9966 66be 7b5d 22be
000003e0: 0706 943e ba0e 043c 4f2a 1abd 0b54 ad3c
000003f0: 7b9b 143e 22dd 6fbe af3f 303e 6ad1 4abe
-0.21186851 0.11344105 -0.06628415 -0.24569064 -0.08142373 -0.0094742775 -0.051080793 0.0938642
-0.17721774 -0.104164794 0.1958834 0.17165387 0.051704824 0.25328052 -0.054941434 0.041290227
0.080238126 0.09306449 -0.056158368 0.1299186 -0.08889189 -0.22880374 0.014753771 0.10115496
-0.05297088 -0.03858561 0.18070588 0.18258165 0.19313425 0.288858 0.13037479 -0.28263888
0.106230594 0.21041106 0.031173108 0.2780283 -0.037923686 -0.056850675 0.117496066 -0.106177405
0.28532106 0.2078237 -0.120566756 -0.16804142 -0.20322984 -0.28380775 0.24104317 0.23515922
-0.03690383 0.12451367 -0.20062578 -0.094268285 0.040699247 -0.023684876 0.26610383 -0.30563584
0.18792956 0.22771789 0.14329372 -0.05776109 0.042781096 0.15535226 -0.06401896 -0.18373923
-0.05360988 0.19571209 -0.063548006 -0.10633944 -0.13552243 -0.28166118 -0.0110972775 -0.19159655
-0.1738089 0.0021844846 -0.24638963 0.16308336 0.12707345 -0.039184075 0.19012699 0.028786011
0.17902313 -0.073116414 0.1338751 -0.19338462 -0.15478235 -0.07766012 -0.13322255 0.025864085
0.2040553 0.23884459 0.27293757 -0.061529506 -0.16413775 0.26395097 -0.035328075 0.1772945
-0.150958 -0.23094407 0.07851983 -0.03315096 -0.21818413 -0.2132652 -0.22561097 0.08118933
0.2370654 0.32082748 0.24474747 0.08341991 -0.03747896 0.16339494 -0.023683053 0.15441026
0.017870804 0.30040637 0.048826423 0.12498937 -0.10252634 0.22642262 0.26800856 -0.18954396
0.2367008 0.06034177 -0.008629971 -0.14671256 -0.05121422 0.013553602 0.23832086 -0.012680462
0.14365287 0.06545279 0.11139607 -0.16286726 -0.1883902 -0.03094675 -0.21805637 -0.0063520176
-0.17962347 -0.23696072 0.26130235 -0.19272551 -0.08509867 0.28796053 -0.123157166 -0.035554484
-0.09010166 0.17581648 0.22133347 -0.17724346 -0.23488717 -0.01464206 -0.088629454 -0.09988819
0.11290482 -0.2607194 -0.25278983 0.04456231 0.15645903 0.19879939 0.22878695 -0.06082072
-0.020887028 0.12599249 -0.04957801 -0.137937 0.10320187 -0.011952895 0.026468184 0.1695778
0.012455855 0.28865615 0.01266306 0.029921852 0.054758526 0.09141891 -0.13219042 -0.2446827
0.28817663 -0.079330675 -0.1535553 -0.2643094 -0.06230675 -0.13803656 0.2094357 -0.11208208
0.19198564 0.19159272 -0.002724067 -0.29031354 -0.10861484 -0.10565902 -0.12150989 -0.14613849
-0.12418915 -0.05266212 -0.29672664 -0.027898178 0.0026899576 -0.27138796 -0.2552525 0.09498924
0.19223133 -0.13636677 -0.14358704 -0.25242415 -0.1220742 0.2071431 -0.16611868 0.14752686
0.14752603 0.2791233 -0.013213324 0.20732784 -0.15159778 0.06305615 -0.06433665 0.22446401
-0.13437487 -0.20401542 -0.015688347 -0.022327023 -0.19201198 0.23147002 0.093302995 0.24976118
0.085926965 0.17809063 0.26388383 0.22324759 -0.08991182 0.20743954 -0.107715815 0.037619878
0.29558733 -0.056361828 0.042426053 0.058827482 0.031909894 0.18987206 0.045953866 0.11705947
-0.15697514 0.14268312 0.124756105 0.15577605 -0.1295346 -0.11550372 -0.22500075 -0.15855972
0.28910848 0.008060152 -0.037638005 0.021158239 0.14512436 -0.23424199 0.17211793 -0.19806448

fc1.bias f4 [32]
00000000: f53e 89be 9821 4e3e a988 6cbe d2ce e83c
00000010: aafa c6bd 871b 0d3e 9bf9 823e 12a6 043d
00000020: a27d 413e d4c5 3f3d dfe1 893e 4405 97bd
00000030: 462f 99bd 22b6 923c 1939 853e 924a 88be
00000040: ec5e debd 52f4 9d3d 252b a43d 6635 73be
00000050: e728 3f3d 4cfd 8e3e 2b80 483e 0cd1 bbbd
00000060: d2e8 0a3e a909 1c3e 5e2e 00be c345 4b3d
00000070: 1a7f efbd 96a9 58be ebd1 113d a323 5b3e
-0.26805845 0.20130002 -0.23099007 0.028418932 -0.09715779 0.13780032 0.2558106 0.03238494
0.18895581 0.046819523 0.26930138 -0.07374051 -0.0747972 0.017909113 0.26020125 -0.26619393
-0.10857949 0.07712616 0.08016042 -0.23750839 0.046669867 0.27927625 0.19580142 -0.09170732
0.13565376 0.1523806 -0.12517688 0.049627077 -0.116941646 -0.21158442 0.035600584 0.21400313

fc2.weight f4 [16, 32]
00000000: 49ba 003e ed9b abbd 7275 803c e555 363d
00000010: 6dc7 54bc 84de 903d ea8d 123e 3339 b9bd
00000020: d489 123e 39aa 0d3d 986d 97bc e649 cb3d
00000030: 1bf8 c1bd cb0c 943c 7de8 70bd 9cdf 14be
00000040: 032f 6cbd 89ca 22be 12a2 1a3e 1b08 eebd
00000050: 2a57 16be 5863 54bd 9cc6 df3d b010 503c
00000060: faea 1bbe 4667 fb3d 54d6 04be b907 85bd
00000070: e0b3 233d 2d1b dcbd 63e2 b5bd 0e37 65bc
00000080: b9f2 143e b3f7 163d 57f0 b63d 53f0 873b
00000090: e458 32be afff 87bd c919 1e3e 0392 4e3d
000000a0: 01fb 123e 11d5 e2bd f619 25bd f68c fa3d
000000b0: 71d3 5b3e cd8f ef3d a6cf ddbd 00ce d039
000000c0: bbe7 eabd 87e6 883d a4ce 773d a843 b7bb
000000d0: b2bf 423e b4ae ce3c c231 3bbe d6b2 2cbe
000000e0: d520 963d 4710 40bd a153 c9bd b9e9 4bbd
000000f0: 751d a43b a90c 04be c00b 36be 453b ff3b
00000100: b4ed 233d 507f 933d 7d40 b2bd 2b2d ab3d
00000110: 4cdc 68bb a6eb 413e 6290 0f3d 949f 483d
00000120: 10a6 44be 31dd 153e 3228 f53d 603d c03b
00000130: aafe 203e 5b5d 173e adc0 983c c551 123e
00000140: 8498 5a3d 982e 973d 1fa4 1fbe 5292 3f3d
00000150: be4e c83b 0ba9 793c dc42 bd3d 1acd ec3d
00000160: c57f e73d 23d3 b93d c6d3 23bd 5913 91bc
00000170: c68e debd 5b25 57be eb76 b43c 130e 183e
00000180: d1f8 20be 6a34 1fbe d66e e6bd 98f5 613d
00000190: 3a0b 423c 2cd3 93bd 6d25 e9bd 7181 e73d
000001a0: 2a73 e73c dade 94bd c963 6c3d 1334 e5bd
000001b0: a706 043e b271 3ebd 4c06 a3bd d4b8 433d
000001c0: c72d c1bd e518 223d 0410 873d cd9e 3bbe
000001d0: 77ad 6ebd cf91 c53d 579d 83bd 5efe c93d
000001e0: 35ef 533d 59b0 f63d 50fb 2fbe 1651 8b3c
000001f0: abec ee3d 436f 033c 8d8d 50be 6310 a93d
00000200: 4565 ccbd 1df3 42bd 4c5f aa3d 45db e23c
00000210: 8862 41be a9b4 003e b526 483e 27d1 063e
00000220: e76b 033d 0c42 df3d 9d1d 43be 6890 6f3d
00000230: 967b 573c 5aec d4bc b936 833d f666 833d
00000240: 2206 373e 32a8 b9bd c04b 3a3d a1c4 e1bd
00000250: 270c b6bc a103 c0bd 8a59 533c bb1d 163e
00000260: 948e 1fbe 409a 643e fd8a 0abe ac3e 9f3c
00000270: 05ce a03d 417b eebd c134 563d 5d9f e13d
00000280: ab47 283e 2b9a f9bd ce46 c23d fcb0 1d3d
00000290: eb65 1b3e 19df eb3d 4fc8 96bd e210 273e
000002a0: a4c5 3ebc 1d57 353e 64cc 4c3e ae9b f23d
000002b0: 2909 613e 41fc d13d 0be8 103e 00fc 393c
000002c0: 7389 5abd 83f6 4f3e d0e1 903d e313 853d
000002d0: ab76 02be 1b08 b93c 8a4c 0f3d 5d59 26be
000002e0: 8706 563d ee42 b43c 79b9 32bd a04f c2bc
000002f0: baa1 4fbe 3258 14bc aaa9 c53c 9630 953d
00000300: e219 9e3d fe06 e1bd 9c98 343d d814 d7bc
00000310: 70c9 01bc fc57 03bd a804 fc3c 432f 01be
00000320: ca6e 1bbe 022c 00be 2873 8cbc 879c 1d3e
00000330: 0478 2cbd a8f7 8abc 1627 bc3d b2d7 af3d
00000340: 585c 4b3d 56c0 9f3d 6558 e8bd 1d6f 133e
00000350: 8d3c 08be 6804 5a3d 0e18 b9bd 7b40 2bbe
00000360: 99de 273e 5034 26bc d407 20be 3236 60bd
00000370: 8071 50bd 21cc 043e 5609 8dbd 8dce ffbd
00000380: d1d6 043e 9d5f 09bd c79f 5d3d 1e21 49be
00000390: 8e7e 0d3c 304a 8cbd c9ae 2cbd 5ffd 0d3e
000003a0: a3c0 0c3e 12c9 17bd a29e 483e 1277 a2bd
000003b0: 86f2 313e 4fd1 bdbc 9a97 82bd 302e 873c
000003c0: fe2a 493a e711 463e fadf 603d bc43 203e
000003d0: 3f50 3f3d bdea b73d 3a2e 74bd 4e49 d53d
000003e0: c2f4 ae3d 34d9 1dbe d7af f23b e8f0 70bd
000003f0: e9aa 7ebd ed78 00be ca77 0abd 0460 eb3d
0.12571062 -0.0837935 0.015681002 0.04451551 -0.012987 0.070736915 0.14311948 -0.09044113
0.1431039 0.034586165 -0.018484876 0.099262044 -0.094711505 0.018072506 -0.058815468 -0.14538425
-0.05766202 -0.15897574 0.15100887 -0.1162264 -0.14681688 -0.051852554 0.109265536 0.012699291
-0.15226355 0.12275557 -0.12972385 -0.064956136 0.039966464 -0.10747371 -0.088810705 -0.013990177
0.14545716 0.036857318 0.0893256 0.004148522 -0.17416722 -0.06640565 0.15439524 0.050432216
0.14353563 -0.110757954 -0.04030796 0.122339174 0.21467377 0.1169735 -0.108306214 0.00039826334
-0.1146998 0.066845946 0.060499802 -0.005592782 0.19018438 0.02522979 -0.182807 -0.16865095
0.07330481 -0.046890523 -0.09830404 -0.049783442 0.0050083944 -0.12895454 -0.1777792 0.007789048
0.040021613 0.07202017 -0.087037064 0.083582245 -0.0035531698 0.18937549 0.035049804 0.04898031
-0.19203973 0.14635159 0.11970557 0.0058666915 0.15722147 0.14781706 0.018646562 0.14289005
0.053368106 0.07381934 -0.15589951 0.0467704 0.0061129024 0.015238057 0.09241268 0.115625575
0.11303667 0.09073474 -0.039996885 -0.017709421 -0.108670756 -0.21010344 0.02202936 0.14849119
-0.15719916 -0.15547338 -0.11251609 0.055165857 0.011843497 -0.07218012 -0.113840915 0.11303986
0.028253157 -0.07269068 0.05771235 -0.11191573 0.12893163 -0.046495147 -0.079601854 0.047783688
-0.094325595 0.039574523 0.065948516 -0.18322296 -0.058270898 0.096469514 -0.064264946 0.0986297
0.051741797 0.120453544 -0.17185712 0.017006438 0.116662346 0.008022132 -0.20366497 0.08255079
-0.09980253 -0.047595132 0.08318958 0.027692446 -0.18885243 0.12568916 0.19546016 0.13165723
0.032085326 0.10901269 -0.19054265 0.058487326 0.013152024 -0.025991607 0.06406922 0.064161226
0.17873433 -0.09065284 0.045482397 -0.11023832 -0.022222592 -0.09375692 0.012899766 0.14659779
-0.15581733 0.22324467 -0.13529582 0.019439064 0.07851795 -0.116446026 0.052296404 0.11016724
0.16433589 -0.12187608 0.09486161 0.038498864 0.15175597 0.11517162 -0.073624246 0.16315034
-0.011643801 0.17709012 0.19999844 0.118461 0.2197615 0.10253192 0.14151017 0.011351585
-0.053353738 0.2030888 0.0707432 0.06497934 -0.1274058 0.022586873 0.034985103 -0.16245027
0.05225232 0.02200457 -0.04363391 -0.023719609 -0.20276538 -0.0090542305 0.024128754 0.07284658
0.077197805 -0.10987662 0.044090852 -0.026255056 -0.007921562 -0.03206633 0.030763939 -0.12615685
-0.15178981 -0.12516788 -0.017144755 0.15391742 -0.042106643 -0.016963795 0.091871426 0.085860625
0.049648613 0.07800357 -0.11344985 0.14397855 -0.13304348 0.05322686 -0.09037791 -0.16723816
0.16393508 -0.010144308 -0.15627986 -0.054739185 -0.050889492 0.12968494 -0.06886546 -0.12490568
0.12972571 -0.03353845 0.054107454 -0.1964154 0.00863613 -0.06850088 -0.042158876 0.13866185
0.1374536 -0.03705699 0.19591764 -0.07932867 0.17377672 -0.023171095 -0.06376572 0.016501516
0.0007673948 0.19342767 0.0549011 0.15650839 0.046707388 0.0898032 -0.059614398 0.104143724
0.085427776 -0.15414888 0.0074062156 -0.058823496 -0.06217471 -0.1254613 -0.033805646 0.11492923

fc2.bias f4 [16]
00000000: dd46 b03d 8b6d 6d3d 8e61 bd3c 3b7b b0bc
00000010: 43d1 09be e6c3 fe3d 000c f1bb f47f bebd
00000020: b70f 0f3e 888b bdbc 2494 69bd eb9d 5fbc
00000030: 1800 ddbc 2aac 7a3d 08dd 493d 1d59 dabd
0.08607266 0.057965796 0.023117807 -0.021543136 -0.13458733 0.124397084 -0.007356167 -0.09301749
0.13970838 -0.023137823 -0.057026044 -0.01364849 -0.026977584 0.061199345 0.049283057 -0.10661528

fc3.weight f4 [1, 16]
00000000: e54e 033e 02f2 8ebe e873 22bd 19de ae3d
00000010: 14e6 9a3e ebdd ffbd 700d 1abe 7fff 46be
00000020: 0a41 083e 4200 133e d0db 603e 08a1 653e
00000030: db32 92be 9c6c 7f3e f6d2 603e 5ef8 2fbe
0.12823065 -0.27919012 -0.039661318 0.085384555 0.3025366 -0.12493499 -0.15044188 -0.19433402
0.1330606 0.14355567 0.21958852 0.2242471 -0.28554425 0.24943775 0.21955475 -0.17184588
