models/jump_detection_model.pth (torch, 18122 bytes, 5 tensors)

fc1.weight f4 [64, 26]
00000000: 2147 04bd a2c5 c13d 6261 1a3d e4ba 7ebd
00000010: a518 a8bc 0f5a 27bc 4810 a63d d56c 13be
00000020: 4c01 c4bb bbec 27bd 5fc6 063e 476b 5d3d
00000030: bd1d fa3d 4f9d 423e f063 08be 58fe 2d3e
00000040: c6ad 233d 22c4 343e 9d9e bebb 01ea 03be
00000050: 050c a13d 06d8 1b3e 57c9 de3d 3172 dd3d
00000060: cab5 f03c abe5 91bd da78 fe3d 939d 373e
00000070: 261a dc3d 00d9 0bba 36dd f6bd 4757 e1bd
00000080: 16b3 f73d 9939 323e c03c edbc 360e a83d
00000090: 1842 f6bd e06d 543d 7fed 073e 63a7 363e
000000a0: 1c33 dfbd 4a81 afbd 33f8 403e 2034 c4bd
000000b0: 28b1 e0bc 57e4 44be e84e ef3c 0c74 153d
000000c0: f318 3f3e c9a2 c9bd 8093 0dbb f05e 523d
000000d0: 3dbc 15be 740d 473e 051e c23d 7981 21be
000000e0: 8529 f4bb 6568 293c 7939 3bbe f8c7 0c3e
000000f0: 3d2d f43d 9d20 2e3e 7ab1 153e e202 01be
00000100: 28dc 43be f177 b8bd 7f23 9f3d c698 283e
00000110: 46d8 323d 77f0 05bc a503 1ebe d9a0 fe3d
00000120: fa8a 48bd 1b04 643c 4ece 1c3c 3f4a 3b3e
00000130: 506c 8fbd 9cd4 193e 00b2 0abe 3362 f0bc
00000140: 129b 7c3d 9fd3 3dbd 0d4c 22be 42fe fe3d
00000150: 909d 003e 8967 063e c10d a63d ef04 233e
00000160: d6b1 073e f024 063e d111 dbbd a968 863d
00000170: 5806 033e 04b9 463e d5bf 28be 495f 38bc
00000180: c630 95bd 3737 3a3d cba3 b9bc d141 3a3e
00000190: 81d8 243e 2981 edbd 4c95 1ebd 8ecd 353d
000001a0: f7a3 0c3e 6a95 d83d 0f1d 413e 50a2 eebc
000001b0: 0a8a c83d 92da a73d fa2e a93d f5cf 93bd
000001c0: 2142 ddbd 2f78 0fbe bd61 ebbd 2976 9cbd
000001d0: 17a3 b8bd 84da 27be f8ef 3abd 9b35 10be
000001e0: 5d62 21be 2839 b6bc cf16 003e c066 d53b
000001f0: 2450 633d 6025 9a3c 6148 2cbe 18ce 0ebe
00000200: 35df 393e 26a9 ee3d c397 cbbc f644 0d3e
00000210: 0211 be3d df2d eebd 3629 e13c fe11 fcbd
00000220: 905b fabd 6ec0 08be fdc6 b23d 1d67 99bd
00000230: 1c2f 0cbd e28f 02bd 25ed 27be 4bc6 513d
00000240: 95a6 4abc 6490 c83d 38b6 bdbc 59be c6bc
00000250: 889d 05be 53d4 633d 228a 48bd 0b09 453e
00000260: bd83 cdbd db16 04be 1357 0e3e fed5 253e
00000270: d980 2fbd 1609 53be 28e8 b13d cc0e a5bd
00000280: 5ec7 0a3d 3496 12be 93cb 1dbe 5d3b 2abe
00000290: 5c0c 0e3d af14 ae3d 4459 da3d df29 493e
000002a0: 0349 bf3d 9110 c33c b45f e23d f2f7 823d
000002b0: 99b1 113e 7513 27be 02b8 bfbd 13b6 883d
000002c0: 3803 093e ec82 0fbe 2a70 363e b9b9 bb3d
000002d0: 69a1 2d3d ffbf 5d3d 45c5 353e 10b9 c3bc
000002e0: 99f5 033e 59e4 173e 81ab 113e a05e db3c
000002f0: aa48 91bd 70b1 293d 6d81 07be c363 483e
00000300: 58c0 4bbd 0074 713b 35cd e6bd 44ae a7bd
00000310: bae3 0abe f7bb 483e 3d74 41be 1832 82bc
00000320: 29cd 1f3e 5686 d8bd a019 933b 40b4 e53c
00000330: 80a0 71bc 65e5 21be 9798 44be 4ad6 c33d
00000340: 4ca5 14be d9d2 4b3c b07e 8c3b 282d 093d
00000350: 522b 9cbd d22e 253e d86c 803c ba65 cdbb
00000360: 3fd5 c43d 2eae 363d d7ee 18be 9f93 0c3d
00000370: 24c4 513d 585c b8bd 11d6 113e 58cc 6dbd
00000380: 0176 f93d be54 bfbd fae4 2d3d 2c7d bbbd
00000390: d252 8fbd e148 0f3e 4352 963d b2da acbd
000003a0: 3473 f53d 0a70 06be 4664 3ebe fe99 3abe
000003b0: 5302 8b3d c4ae 453e 2d2d 00be e1ff fbba
000003c0: 6d95 c3bc 16e8 a53d 5dc7 5dbd 02cc ffbd
000003d0: 9a32 893c 6665 e4bd d2e3 06bd 9c45 ff3d
000003e0: 85ce 49be e3ac e13c 21fa 7c3c 7b13 33be
000003f0: d2ce 1dbe 8286 2d3d 98e5 b1bd 8b2d 293d
-0.032294396 0.094615236 0.037690528 -0.06218995 -0.020519564 -0.010214343 0.08108574 -0.14396985
-0.0059816 -0.04099725 0.1316161 0.054057386 0.122127034 0.19005321 -0.13319373 0.16991556
0.039960645 0.17652944 -0.005817248 -0.12882234 0.07863621 0.15219125 0.10878246 0.10812796
0.029383559 -0.07123884 0.12425394 0.17931204 0.10747175 -0.0005334765 -0.120539114 -0.11002975
0.12094705 0.17404784 -0.028959632 0.082058355 -0.12024325 0.051862597 0.13274191 0.1783729
-0.1089842 -0.08569582 0.1884468 -0.095802546 -0.027428225 -0.1922773 0.02921243 0.036487624
0.18661861 -0.09845502 -0.002160281 0.05136007 -0.14622588 0.19438726 0.09478382 -0.15772046
-0.0074512386 0.010339831 -0.18283643 0.13748157 0.11922691 0.17004628 0.14618483 -0.12598756
-0.19126952 -0.09007252 0.07770442 0.16464528 0.043663286 -0.008175007 -0.15431078 0.12433023
-0.048960663 0.013916994 0.009570671 0.18290041 -0.07003081 0.1502251 -0.13544464 -0.0293437
0.061671324 -0.046344396 -0.15849324 0.124508396 0.12560105 0.13125433 0.08108092 0.15919851
0.13251433 0.13100028 -0.106967576 0.06562931 0.12795389 0.19406515 -0.16479428 -0.0112531865
-0.072846934 0.045462813 -0.02266111 0.1818917 0.16098215 -0.11596901 -0.0387166 0.044385485
0.13734423 0.105753735 0.18858741 -0.029130131 0.09791954 0.08195986 0.08260913 -0.07217399
-0.10803629 -0.1401069 -0.114932515 -0.07639725 -0.09015482 -0.16391951 -0.04563901 -0.14082949
-0.15760179 -0.022244051 0.12508701 0.006512493 0.05549635 0.01881665 -0.16824485 -0.13945806
0.18151553 0.11653356 -0.024852639 0.13795838 0.09280588 -0.11629843 0.027485471 -0.12308119
-0.122244954 -0.13354656 0.0872936 -0.074903704 -0.034224615 -0.0318755 -0.16399057 0.051214498
-0.012368818 0.09793165 -0.023158178 -0.024260687 -0.13048375 0.05562241 -0.04895986 0.19241731
-0.10034893 -0.12899344 0.13900404 0.16194913 -0.042847488 -0.20608935 0.086868584 -0.08059463
0.033881538 -0.1431511 -0.15409689 -0.16624208 0.034679756 0.08500039 0.10661557 0.19644879
0.09340098 0.02381161 0.1105341 0.06394948 0.14227904 -0.16316016 -0.093612686 0.06675353
0.13380134 -0.14014786 0.17816225 0.09166283 0.04239026 0.05413818 0.17751034 -0.023891956
0.12886657 0.14833201 0.1422558 0.02677852 -0.07093938 0.041428983 -0.13232966 0.19569306
-0.04974398 0.0036842823 -0.11269609 -0.081875354 -0.13563433 0.19602953 -0.18891998 -0.015893027
0.15605606 -0.105724975 0.0044891387 0.028040051 -0.014747739 -0.15810163 -0.19198833 0.09562357
-0.14516181 0.012440407 0.0042875633 0.03349033 -0.0762545 0.16131142 0.0156769 -0.0062682303
0.09610986 0.044599704 -0.1493486 0.03432047 0.051212445 -0.09001988 0.14241816 -0.058056206
0.121807106 -0.09342335 0.042454697 -0.09154734 -0.069982186 0.13992645 0.07339909 -0.0844015
0.11984864 -0.13128677 -0.18592939 -0.18222806 0.06787553 0.19304949 -0.12517233 -0.0019226038
-0.023874963 0.081009075 -0.054145206 -0.12490083 0.016747762 -0.11152153 -0.03293211 0.12464449
-0.19707687 0.02754826 0.015440495 -0.174879 -0.15410927 0.042364605 -0.0868637 0.0413032

fc1.bias f4 [64]
00000000: ade4 89bd e1a2 023e 8198 7d3d effc 183d
00000010: d4c2 09be fbe6 efbd e818 1c3d e7e2 433e
00000020: 3732 213e 46eb 1e3e 738b 0e3e ee08 843d
00000030: 5c7e 603d 59a6 2a3e 43b4 50bb eeca 44bd
00000040: 42bd b8bd d0d6 55bc 80bf a9bd 226a 96bc
00000050: d338 133d 40cb 9b3c 8168 3fbc 486a 03be
00000060: fc1f 11be 226d f53d 25ee 81bd a775 e33b
00000070: d749 ab3d b994 3d3e 37ab 063e 453d 503e
00000080: d84e 503d c2d2 553d 6aa6 b73d 0a66 933d
00000090: bf01 22be a7a7 33be f383 183e cf0e ac3d
000000a0: e622 47be c7df 833d 78e2 9dbd 8bb6 363c
000000b0: 1866 203d c45a 763d 32ec 283e 6172 a73d
000000c0: e093 4a3c 38f3 a2bc e761 8cbc 3612 2f3e
000000d0: 28dd e0bc 5909 ebbd 49a6 1fbe f2b5 28be
000000e0: 5f49 ea3c 829f 613d 6e21 9abd a5d0 38bd
000000f0: 4bfe 76bd f499 32bd 5e0d c53d 4b9b 6b3d
-0.067330696 0.12757446 0.061913017 0.03735059 -0.13453227 -0.11713978 0.03810969 0.19129525
0.15741812 0.15519437 0.13920383 0.06447016 0.054808006 0.16665019 -0.0031845726 -0.04804509
-0.09020473 -0.013051704 -0.08288479 -0.018361155 0.035942864 0.019017816 -0.0116826305 -0.12833512
-0.14172357 0.11983706 -0.063442506 0.0069415155 0.08363693 0.18513764 0.13151251 0.20335872
0.05085644 0.052202947 0.08967288 0.07197197 -0.15820979 -0.17544423 0.14894085 0.08401262
-0.19446906 0.064391665 -0.07709211 0.01115192 0.039159864 0.060145155 0.16496351 0.08176113
0.012364358 -0.019891366 -0.017136527 0.1709679 -0.027449206 -0.11476392 -0.15590777 -0.16475657
0.02859944 0.05508376 -0.075259075 -0.045120854 -0.060301106 -0.043603852 0.0962169 0.057521146

fc2.weight f4 [32, 64]
00000000: 2330 703d f072 343c fc1d 5b3d bd96 333c
00000010: 0862 62bd d4a7 7abd a4b6 efbc cad9 993d
00000020: 8aed a33d f5a7 22bd ea91 d8bd 204b 97bd
00000030: 3069 62bc 1e88 a03d 5327 5a3d 0591 b63c
00000040: 88c9 ef3d 286f ad3d 38a4 a6bc 60de d93d
00000050: 6433 6dbd 3a13 dd3d bca1 b4bd e816 b53c
00000060: 9c6e e13d 0c97 9e3d 0b54 aebd b5e2 1dbd
00000070: 36e1 21bd 645e 0abd 0b9a b8bd 6ef3 9c3d
00000080: decd a73d 4c9c d7bd 4e4c cabd ac1f 143d
00000090: 0060 1338 ab31 b33c 7885 7abd beeb 8ebd
000000a0: f253 c13d 7396 943d 7012 15bc af5a cc3c
000000b0: 0820 053e e05b f03d 92ee b33d 4ee4 873d
000000c0: 183f e73c 1fe8 063e e6f3 f2bc 9278 ba3c
000000d0: 27b1 6dbb 144b fb3b 0d5c 1ebb a1f3 c8bd
000000e0: c2cc 083c ca46 18bd 75fe 503d 1787 593d
000000f0: d622 bdbd d040 32bd 24b5 5c3d 0867 023d
00000100: d9bd d6bc 447c e53d 5646 293d a5ac 9e3d
00000110: 40f3 36bc b4cc a1bd 1422 983d 04d0 4dbd
00000120: d287 bebc dddd f7bd 5850 e0bc e8db 3dbd
00000130: a084 9c3d 2f05 c7bd bed7 943d eba4 0f3d
00000140: 22ea d63d 8973 aabd 4491 213d 09e8 fabd
00000150: 1cc8 cf3c a0f9 e23b 48f3 5a3d c441 43bd
00000160: 1a51 3aba 54f4 85bd 5e72 a13c aef7 9d3c
00000170: 21b3 9bbd 282f cfbc 60ce 723d c8b9 903d
00000180: fb7e a63c bb05 7ebd 6c15 d23d 1028 bc3d
00000190: 2e7e a1bd a420 ddbd c4b5 cd3d 2000 05be
000001a0: 8ced 473d 761d 8cbd 8430 c03d 7aa9 3ebd
000001b0: 27a3 cdbc 52ab d0bd ddb2 debd 6a70 f2bc
000001c0: d865 b63c caa2 413d 1c64 af3d c5ca d73d
000001d0: 7376 e83b 5eb6 853d 53c3 6d3d b281 5b3d
000001e0: 9c41 fd3c 7772 40bc 48ab a03d 0460 acbc
000001f0: 6422 9c3d ca70 fbbd 7441 bfbd 91b0 af3d
00000200: d24e febd b202 ca3d a747 50bd fdb3 d1bd
00000210: 4a5c 9c3d a553 f1bd e411 aebc e0b1 3dbc
00000220: e9b9 303d 3663 6b3d 0cd4 65bd 7819 9e3c
00000230: 1033 d63c 9638 cf3d fae4 c43d 6ce6 b03d
00000240: 30cd 36bc 5967 b83d f6e1 a23d 2935 8bbd
00000250: 809a e43d 1033 cc3c 8a2c 4a3d 4a7e 8abd
00000260: f69d 7abd 90d4 99bd b612 74bd 7d9e e8bd
00000270: b84b d4bc 6c64 fc3d 642f fdbd 89e4 6dbb
00000280: 2d99 a93c c035 81bc 387c c53d a4c8 2c3d
00000290: 4a98 f4bd 1e7f 193d a426 623d 7da5 43bd
000002a0: c66e f7bd 711f 2a3d 180e 1b3d 7025 05be
000002b0: 4cb5 8dbd 2883 df3d c7b9 de3d 562c 1f3c
000002c0: 34dd 5b3d 94f6 dcbd 0f15 b0bd e023 da3d
000002d0: 2df5 773c 42e1 a8bd 1530 9dbd 0c38 f2bd
000002e0: 979d aa3c 3033 cebd ac14 683d 4ac4 04be
000002f0: 5749 d1bd 701f bb3c 1c80 873d 5794 e53d
00000300: 185d bebc f497 8b3d b14a 84bd 97a0 543d
00000310: 9010 2ebc 37fb b1bc 776a f93d 7c2d 36bd
00000320: 7c23 3e3d 7327 e63c f633 a53d 9824 b6bd
00000330: c04f 383d 89f9 ccbd 0e65 99bc 2967 af3d
00000340: b0fb 733c 2d66 433d 0030 cc3c 5bc5 e23d
00000350: 0078 ae3c feeb b33d eb62 3b3d 76a1 a6bd
00000360: 5ef7 52bd ecc9 82bd bfe2 5a3d 1045 e73c
00000370: 6ea4 bcbd 9aec 8ebd 9207 e03b 6107 a0bd
00000380: 0c5a 043e 4124 863d fc65 903d 26a2 dabd
00000390: 4094 34bc 8f0c 8dbc 4e48 993d 38c4 44bd
000003a0: 3874 fbbc a750 5b3d 84d9 813d acd2 8b3b
000003b0: 0b01 e2bd 18a8 adbd db34 9ebd 6dbc ca3d
000003c0: 487f 87bd 5941 cb3d fc53 cabd ecec 22bd
000003d0: bdd3 043e f6e5 e8bc e9bc b9bd 93d8 e3bd
000003e0: edfd 363d 5ad1 ae3c 9c95 59bc 0bd7 ccbd
000003f0: 1ae7 ce3d 68a1 d2bc 8af4 993d c78a bbbc
0.058639657 0.011013731 0.053495392 0.010961232 -0.05526927 -0.06119521 -0.029261895 0.07512243
0.08004291 -0.039710958 -0.10574706 -0.07387376 -0.013819024 0.07838462 0.05326016 0.022285948
0.11708361 0.08468467 -0.020341977 0.10638118 -0.057910338 0.10794683 -0.08819911 0.02210565
0.11007425 0.07743654 -0.08512124 -0.038546283 -0.03952142 -0.033781424 -0.09013756 0.07663618
0.08193563 -0.10527858 -0.09877835 0.036163017 3.5136938e-05 0.02187427 -0.061162442 -0.06978558
0.094398394 0.072552584 -0.009098634 0.024945585 0.130005 0.11736274 0.08785738 0.066353425
0.028228328 0.13174485 -0.029657315 0.02276257 -0.003626892 0.007668862 -0.0024163753 -0.098120935
0.008349599 -0.037176885 0.05102392 0.053107347 -0.0923516 -0.04351884 0.053883687 0.03183654
-0.026213573 0.112053424 0.041326843 0.07747773 -0.011166394 -0.07900372 0.07428375 -0.050247207
-0.023258124 -0.12102864 -0.02738206 -0.046352297 0.07642484 -0.097177856 0.07267712 0.035069387
0.10493876 -0.08322818 0.039445177 -0.122512884 0.025363974 0.0069267303 0.053454667 -0.04767014
-0.0007107422 -0.065407425 0.019707855 0.019283142 -0.076025255 -0.02529104 0.059278846 0.07066685
0.02032422 -0.062017184 0.10257992 0.09187329 -0.07885395 -0.10797241 0.10044435 -0.12988329
0.048810527 -0.06841557 0.093842536 -0.046548344 -0.025102211 -0.10188927 -0.10873959 -0.029594619
0.02226536 0.04727439 0.08564016 0.10536722 0.0070941984 0.065289244 0.058047604 0.053590484
0.030915074 -0.011746041 0.07845169 -0.021041878 0.07623747 -0.12277372 -0.09338656 0.08578599
-0.124173775 0.09863795 -0.050849583 -0.10239408 0.0763479 -0.11783532 -0.021248765 -0.011578053
0.043146048 0.05746766 -0.056110427 0.019299254 0.026147395 0.10118215 0.09613986 0.086376995
-0.011157319 0.09004087 0.07953255 -0.06797249 0.11162281 0.024926692 0.049358882 -0.06762369
-0.0611858 -0.07511246 -0.059588157 -0.11358354 -0.025915012 0.123238415 -0.12362555 -0.0036299548
0.020702923 -0.0157727 0.096428335 0.042183533 -0.11943109 0.037474744 0.05521263 -0.047765244
-0.12081675 0.04153389 0.037855238 -0.13002563 -0.06919345 0.10913688 0.10875278 0.00971516
0.053677753 -0.107892185 -0.085977666 0.10651374 0.015134138 -0.082460895 -0.076751865 -0.11827096
0.020827098 -0.10068357 0.05666034 -0.12965503 -0.102190666 0.022842139 0.06616232 0.11209934
-0.02323775 0.06816092 -0.06459559 0.051910963 -0.010624066 -0.021726234 0.1217851 -0.04447697
0.04642056 0.028094983 0.080665514 -0.088936985 0.04499793 -0.100085326 -0.018724944 0.08564598
0.01489155 0.047704864 0.024925232 0.11072799 0.021297455 0.08785246 0.045748632 -0.08136265
-0.05150544 -0.0638617 0.0534389 0.028231174 -0.0921105 -0.06978722 0.00683684 -0.078139074
0.12924975 0.06549884 0.07050702 -0.106754586 -0.011021674 -0.017217902 0.07484494 -0.04803869
-0.030695066 0.053543713 0.06340316 0.0042670574 -0.11035355 -0.08479327 -0.07724925 0.098992206
-0.06616074 0.099245735 -0.098793 -0.039776728 0.12971397 -0.028429966 -0.09069235 -0.11125293
0.044675756 0.021340061 -0.013280299 -0.10001954 0.10102673 -0.02571173 0.07517345 -0.022893323

fc2.bias f4 [32]
00000000: 2fda d0bd b97d ebbd 5c74 c7bd 42d5 9a3d
00000010: 2d28 e53d 8b4e b1bd 34de 69bd d032 8c3d
00000020: 8949 e9bd bb3b 4cbd 10e6 b8bd 7bd6 e8bc
00000030: 517b 513d ade8 393c 7111 a73d 8040 e7bb
00000040: 0a76 a3bc e811 5b3c aa75 973c 03fe 88bb
00000050: 0578 d3bd f984 26bd 7c6d 703d 6ef0 093d
00000060: 8b91 cf3b 6d6c dd3c 0f6d a43d 0376 183d
00000070: 6fb6 c5bd f469 6f3d 5bae eabd 64f8 14bd
-0.10197865 -0.11498589 -0.09738991 0.07560207 0.111893035 -0.08657559 -0.057096675 0.06845629
-0.11390979 -0.04986165 -0.09028256 -0.028422585 0.051142994 0.011346978 0.081576236 -0.0070572495
-0.019953746 0.013370968 0.018488724 -0.004180671 -0.10325626 -0.040654156 0.058698162 0.033676557
0.0063344887 0.02702924 0.08028614 0.03722192 -0.09653937 0.058450654 -0.11459037 -0.036369696

fc3.weight f4 [1, 32]
00000000: 1c1e 2f3e 5e4e 69bd 0e2e dcbd 4f96 193d
00000010: 4625 533d 8fec 9d3d c571 163d f100 373d
00000020: 8f20 9f3d a523 a63d 6850 d9bd e52d 1c3e
00000030: 4503 d53d a676 073e 4422 6a3d 6105 233e
00000040: c8e5 163e 8ca9 bd3d ae85 12be 81f7 feba
00000050: 59c0 253e 7701 883d 53f8 6d3d 3381 fbbc
00000060: 8e8d 173e fdc7 223e d3e3 0bbc 5cc6 abbd
00000070: f3da 933d 2069 e63d 9e9a 06bc 1801 24be
0.1710133 -0.056959502 -0.10750972 0.03749686 0.05154922 0.077111356 0.036729593 0.044678632
0.07769882 0.081122674 -0.106110394 0.15251882 0.10401014 0.13228855 0.057161584 0.1592002
0.14736092 0.09260854 -0.14308807 -0.0019452424 0.16186656 0.066409044 0.05809815 -0.030701255
0.14800093 0.15896602 -0.008538204 -0.083874434 0.072194956 0.1125052 -0.008215575 -0.16016042
