models/jump_detection_model.pth (torch, 18122 bytes, 5 tensors)

fc1.weight f4 [64, 26]
0	0x3dbe6cc7	0.092980914
1	0xbd6fd93f	-0.05855679
2	0x3c1c5b0f	0.009543194
3	0xbd15422b	-0.036440056
4	0xbdb51d45	-0.08843473
5	0x3dfc92da	0.12332697
6	0xbd67a2f3	-0.056551885
7	0xbba985a3	-0.0051734014
8	0xbdf99fd3	-0.12188687
9	0x3da24274	0.07922831
10	0x3c61aa9b	0.013773586
11	0x3d89fe15	0.067379154
12	0x3d9e7f54	0.0773913
13	0x3e230c59	0.15922679
14	0x3e23e2cc	0.16004485
15	0x3e2af297	0.16694103
16	0x3c7b8b01	0.015352965
17	0x3de24e2c	0.11050066
18	0xbe369b09	-0.17832579
19	0xba07e315	-0.0005183679
20	0x3c9a867a	0.018862952
21	0x3d42d268	0.04756394
22	0x3d86a895	0.06575123
23	0x3e0892eb	0.13337295
24	0xbe4ae37c	-0.19813341
25	0xbe375539	-0.17903604
26	0x3e308c5f	0.17241047
27	0xbd148118	-0.036255926
28	0x3c8288a0	0.015934289
29	0xbe315e55	-0.17321141
30	0xbe018c8e	-0.12651274
31	0x3e25398f	0.16135238
32	0x3e37988f	0.1792929
33	0xbe01f448	-0.12690842
34	0x3d9b645a	0.075875
35	0xbdd67f6d	-0.10473523
36	0x3d67390c	0.05645089
37	0xbd3f5814	-0.046714857
38	0xbe07c127	-0.13257276
39	0x3e15b18f	0.14618514
40	0xbe3d7bc6	-0.18504247
41	0x3e2dbc67	0.16966401
42	0xbe0c6cc3	-0.13713364
43	0xbe46da4d	-0.19419213
44	0x3d718164	0.058961287
45	0xbd5004c4	-0.050785795
46	0xbd9fd214	-0.07803741
47	0x3e0bd499	0.13655318
48	0x3dcb8d4a	0.09939058
49	0x3e3072b7	0.1723126
50	0x3d1857c0	0.03719306
51	0x3d591c20	0.053005338
52	0x3e10c5e7	0.14137994
53	0x3d0bd534	0.034138873
54	0x3c193000	0.009349823
55	0x3e314161	0.17310096
56	0x3c9ef708	0.019404903
57	0x3e30e8a3	0.17276244
58	0x3d09b81c	0.033622846
59	0x3df6e572	0.12055482
60	0xbe1d572a	-0.15365282
61	0x3e2aa3ad	0.16664
62	0x3da127f2	0.07868947
63	0x3e16bfd9	0.14721622
64	0xbe03900a	-0.12847915
65	0xbd74a420	-0.059726834
66	0xbe212fe4	-0.15740925
67	0x3bcb5da0	0.0062062293
68	0x3e196955	0.14981587
69	0x3e0a5f23	0.13512854
70	0x3db309ca	0.087421015
71	0xbe0b23eb	-0.1358792
72	0xbd202284	-0.039095417
73	0xbc7b64d0	-0.01534386
74	0x3dcc4dca	0.099757746
75	0x3c15e620	0.009149104
76	0xbe45cc06	-0.1931611
77	0xbd3eaca4	-0.04655136
78	0x3dc9fb4a	0.09862383
79	0xbe36ddd4	-0.17858058
80	0x3d9a5236	0.07535212
81	0xbcf0d808	-0.029399887
82	0xbd5d0d50	-0.053967774
83	0xbd742818	-0.05960855
84	0x3de46282	0.111516014
85	0x3c93d430	0.018045515
86	0xbe344d00	-0.17607498
87	0x3dc5389e	0.096299395
88	0xbe2657ea	-0.16244474
89	0xbe453103	-0.19256978
90	0xbd361b10	-0.044459403
91	0xbe3730fe	-0.17889783
92	0xbe44c297	-0.19214855
93	0xb9db6e00	-0.0004185289
94	0xbd659bbc	-0.056056723
95	0x3e295953	0.1653798
96	0xbca59c48	-0.020216122
97	0x3cb7c470	0.022432536
98	0xbdee9f13	-0.11651435
99	0xbdad8ac4	-0.08473733
100	0xbe2be96b	-0.1678826
101	0x3d35eca8	0.044415146
102	0x3e1befff	0.1522827
103	0x3e2c4e17	0.16826664
104	0x3e096f99	0.13421477
105	0xbc969d98	-0.018385693
106	0x3d07be50	0.03314048
107	0x3d280c34	0.041027263
108	0xbdd18e42	-0.10232212
109	0x3d7381dc	0.059450015
110	0xbd401cc8	-0.046902448
111	0xbc000b90	-0.007815257
112	0xbe18e02a	-0.14929262
113	0xbbdd5d80	-0.006755531
114	0xbc9bfe00	-0.019042015
115	0x3d87d0d6	0.06631629
116	0xbe32950b	-0.17439668
117	0xbe3f670d	-0.18691655
118	0xbdb5c78a	-0.0887595
119	0xbd2b7bc4	-0.04186608
120	0x3c43c670	0.011949167
121	0xbd651f6c	-0.05593817
122	0xbdf8fe35	-0.12157861
123	0x3d0ab478	0.033863515
124	0x3d2cdc54	0.04220231
125	0x3dc07bb6	0.09398596
126	0xbe162e68	-0.1466614
127	0xbc70fb10	-0.014708295
128	0x3e2bc96d	0.16776057
129	0xba85d880	-0.0010211617
130	0x3e35ba3d	0.17746826
131	0xbe3faa79	-0.18717374
132	0xbd8aceba	-0.06777711
133	0xbdd5e96c	-0.10444912
134	0x3d9a838a	0.0754462
135	0xbe205686	-0.15658006
136	0x3e0143d1	0.12623526
137	0x3d489a8c	0.048975512
138	0x3d9dd352	0.07706322
139	0x3e3c0431	0.18360974
140	0xbd3c9d7c	-0.046048626
141	0x3d810bfa	0.063011125
142	0x3def4f2e	0.11685024
143	0x3e393a07	0.18088542
144	0xbe38e7e1	-0.18057205
145	0x3dfbf6de	0.123029456
146	0xbc6bdb90	-0.0143956095
147	0x3e19bf27	0.15014325
148	0xbdc48e21	-0.095974214
149	0xbc059af0	-0.008154616
150	0xbd20e3a0	-0.03927958
151	0x3c560af0	0.013064131
152	0xbe37879a	-0.17922822
153	0x3d75bffc	0.059997544
154	0x3d242e5c	0.040083274
155	0x3e2b735d	0.16743226
156	0x3df15d0e	0.11785327
157	0x3e1af9ff	0.15134428
158	0x3c9d7747	0.019221915
159	0xbc284da8	-0.010272421
160	0xbde685ea	-0.11256011
161	0x3e0a9007	0.13531505
162	0x3c16bfb5	0.00920098
163	0x3d43e3fc	0.047824845
164	0xbb26fc7d	-0.0025480085
165	0x3df64bed	0.120262004
166	0xbe03dd77	-0.12877451
167	0xbcbf3d67	-0.023344709
168	0xbd4702cd	-0.048586655
169	0x3e5958f0	0.21225333
170	0xbda7bf06	-0.08190732
171	0xbdfcf2c8	-0.12350994
172	0x3e4a7d7e	0.19774434
173	0x3e4f7f00	0.2026329
174	0xbe0d719e	-0.13812873
175	0x3e3eb3f8	0.1862334
176	0xbdd7b8a0	-0.10533261
177	0xbd8e1dce	-0.069392785
178	0x3e4e89da	0.20169774
179	0xbe0abec9	-0.13549341
180	0x3e186e60	0.14885855
181	0xbe350d53	-0.17680864
182	0xbe1162ce	-0.14197847
183	0x3ddf8105	0.109132804
184	0xbcd9ae4b	-0.026572367
185	0x3d979a12	0.074024335
186	0xbc444e2d	-0.011981529
187	0xbe61ad58	-0.22038782
188	0xbc5cb231	-0.0134702185
189	0xbd81d36b	-0.06339153
190	0x3c28a6bf	0.010293662
191	0x3e103ab4	0.14084893
192	0x3dd6044b	0.104500376
193	0xbd4b7607	-0.049673107
194	0xbdf281df	-0.11841177
195	0x3cbecffd	0.023292536
196	0xbcfe92cc	-0.031075858
197	0x39987e67	0.00029085876
198	0xbe5138c7	-0.20431815
199	0xbd0df822	-0.034660466
200	0x3d22f89a	0.039787866
201	0xbda1c1e3	-0.07898309
202	0xbe3b8a47	-0.18314467
203	0x3e2842a5	0.16431673
204	0xbe1f5828	-0.15560973
205	0x3dd3cc10	0.10341656
206	0x3c46b979	0.012129181
207	0xbd4e8b4c	-0.050425813
208	0xbde77709	-0.11302001
209	0x3d94f3b0	0.07273042
210	0x3db62310	0.088934064
211	0x3df2a632	0.118481055
212	0xbb8dc989	-0.0043270034
213	0xbddd2c83	-0.107995056
214	0x3dc2ab0e	0.09505282
215	0xbdbd8648	-0.09254128
216	0xbdfeca9b	-0.12440988
217	0xbde91258	-0.11380452
218	0xbcf1c8ab	-0.029514631
219	0xbd7c037b	-0.061526757
220	0x3dcf5281	0.10123158
221	0xbc45ed19	-0.012080454
222	0xbda53f14	-0.08068672
223	0x3de55ac6	0.11198954
224	0x3dae8633	0.0852169
225	0x3ba2d6ab	0.004969438
226	0xbde9b697	-0.114117794
227	0x3db60ee6	0.088895604
228	0xbcc26750	-0.023730904
229	0x3daba19a	0.083804324
230	0xbe321082	-0.1738911
231	0x3ca81724	0.020518847
232	0x3da8d1fa	0.08243175
233	0xbd181cd1	-0.037136856
234	0x3e1d0a2b	0.1533591
235	0x3d0c03b3	0.034183215
236	0xbe3ce9e1	-0.18448593
237	0xbca1201e	-0.019668635
238	0xbe3ade52	-0.18248871
239	0x3e26f3df	0.16303967
240	0xbd156802	-0.036476143
241	0x3d5c2328	0.053744465
242	0x3c1cc723	0.009568962
243	0xbd42a1e8	-0.047517687
244	0x3cf97b54	0.030454315
245	0x3d84786a	0.0646828
246	0x3ce7694b	0.02824845
247	0x3d90d2ff	0.07071494
248	0x3dbbdbe0	0.09172797
249	0x3da281e8	0.07934934
250	0xbe4127f1	-0.18862893
251	0x3d86aab9	0.065755315
252	0xbd8514f2	-0.064981356
253	0xbd80ec81	-0.062951095
254	0xbe16c4c8	-0.14723504
255	0x3e045170	0.12921691

fc1.bias f4 [64]
0	0xbdc03944	-0.093859226
1	0xbe3aae01	-0.1823044
2	0x3dc83c02	0.097770706
3	0x3d2b97c8	0.041892797
4	0x3e136245	0.14392956
5	0x3e21db35	0.15806277
6	0xbd53df7b	-0.0517268
7	0x3e1fb2bd	0.15595527
8	0xbdeba815	-0.115066685
9	0x3d14a077	0.036285844
10	0xbcdbf948	-0.026852265
11	0x3dbdeaba	0.09273286
12	0xbe072f33	-0.13201599
13	0xbe557f87	-0.20849429
14	0xbd1f32d7	-0.038866844
15	0xbe40a6fd	-0.18813701
16	0x3dbbe9c9	0.0917545
17	0xbe01c1cf	-0.12671588
18	0xbdca059d	-0.09864352
19	0xbe344518	-0.17604482
20	0xbd944c6b	-0.07241138
21	0x3da68ce9	0.08132345
22	0xbd15e402	-0.0365944
23	0x3e1935eb	0.14961974
24	0xbc664f69	-0.014057019
25	0x3cefb1a8	0.029259518
26	0xbdea6657	-0.11445301
27	0x3de7417a	0.112917855
28	0x3e135e3f	0.14391421
29	0xbd09c8fd	-0.033638943
30	0xbe2e1e49	-0.1700374
31	0x3bccdba0	0.0062517673
32	0x3e03524e	0.12824365
33	0x3e1312e9	0.14362682
34	0xbe05e812	-0.13076809
35	0x3e3a4bbe	0.18192956
36	0xbd14dfd8	-0.036346287
37	0x3dc78fcd	0.09744225
38	0xbdb2ad08	-0.08724409
39	0x3cfa7cf0	0.030577153
40	0xbe12a862	-0.14322045
41	0xbdea0c44	-0.11428121
42	0xbe2026d0	-0.15639806
43	0x3e2635dc	0.16231483
44	0xbd95f4d1	-0.07322086
45	0xbcfd5ef7	-0.030929072
46	0xbe21ccc5	-0.1580077
47	0x3c98d9cf	0.018658547
48	0x3e1c9073	0.15289478
49	0xbe38e267	-0.18055116
50	0x3d21637c	0.039401516
51	0x3e40f902	0.18844989
52	0xbe0bc874	-0.13650686
53	0xbdcf8141	-0.10132075
54	0x3d6c4f8c	0.05769305
55	0x3ddcac9e	0.107751116
56	0x3dafc5c4	0.08582643
57	0xbe38ccd8	-0.18046892
58	0xbe07b42a	-0.13252321
59	0xbd6de41e	-0.058078878
60	0x3dd7d392	0.10538401
61	0xbde6e3f8	-0.1127395
62	0x3e069629	0.13143219
63	0x3e5d6b29	0.2162291

fc2.weight f4 [32, 64]
0	0x3d4282e8	0.047488123
1	0xbc2b63e0	-0.010460824
2	0x3d3c2f1c	0.045943365
3	0x3dac4c24	0.0841296
4	0x3b815300	0.003946662
5	0x3d38f3c8	0.045154363
6	0x3d4bf570	0.049794614
7	0x3d6edf96	0.058318697
8	0xbd219a04	-0.03945352
9	0xbd5a8437	-0.053348746
10	0x3dcaf822	0.09910609
11	0xbdfa9f50	-0.12237418
12	0xbca85238	-0.020547017
13	0xbdba7100	-0.09103584
14	0x3d830409	0.06397254
15	0x3dd6c726	0.10487203
16	0x3df85ee2	0.121274725
17	0xbc579a82	-0.013159396
18	0xbd993f46	-0.074827716
19	0xbd63ba3d	-0.055597533
20	0x3d73426d	0.05938952
21	0xbd3929c0	-0.04520583
22	0xbdb1dc0a	-0.08684547
23	0x3d5adb5c	0.053431854
24	0xbd38f765	-0.04515781
25	0x3e02f9e6	0.12790641
26	0x3d7a58ec	0.06111996
27	0x3d74293d	0.05960964
28	0xbd176d3c	-0.03696941
29	0xbd95f63b	-0.07322355
30	0xbddd22ae	-0.1079763
31	0xbddb9ea4	-0.10723618
32	0x3daf9513	0.085733555
33	0x3dce2125	0.100649156
34	0xbbe20894	-0.0068979952
35	0x3c68ccf6	0.014209023
36	0x3daff36e	0.085913524
37	0xbae9a4d6	-0.0017825614
38	0x3d98e4a0	0.07465482
39	0xbd153a64	-0.03643264
40	0xbdc6adce	-0.09701119
41	0x3dcff74c	0.1015459
42	0xbdbf92ce	-0.09354173
43	0x3e026a5d	0.12735887
44	0x3e037441	0.12837316
45	0x3e10546c	0.14094704
46	0x3c219130	0.009861276
47	0x3d505794	0.05086477
48	0x3bb6d67c	0.0055797677
49	0x3dafee9b	0.08590432
50	0xbbacdf00	-0.005275607
51	0xbd749592	-0.059712954
52	0xbcbd6bb8	-0.023122653
53	0x3d1bb5ac	0.038015053
54	0x3d1a44b9	0.037663195
55	0xbdab1002	-0.083526626
56	0xbdaedcc7	-0.08538204
57	0x3c7fbf6c	0.015609603
58	0xbd0dd2bc	-0.0346248
59	0xbd575b1e	-0.05257713
60	0xbd223cc4	-0.039608732
61	0x3dcbb082	0.099457756
62	0xbdb171d3	-0.08664288
63	0xbd8872e9	-0.066625424
64	0xbd139608	-0.036031753
65	0x3db36d6c	0.08761105
66	0x3d8995f8	0.067180574
67	0xbd26efcc	-0.040756032
68	0x3da2d4f4	0.07950774
69	0xbdd46aa4	-0.103719026
70	0x3d8cff93	0.068846844
71	0x3db6cf4e	0.08926259
72	0xbddf248e	-0.10895644
73	0xbdad38da	-0.08458109
74	0xbd425968	-0.047448546
75	0xbd955b08	-0.072927535
76	0xb9815200	-0.00024665892
77	0x3d7a7f20	0.061156392
78	0x3d6d5fb1	0.057952587
79	0x3d2fe44c	0.04294233
80	0x3dfaf26d	0.1225327
81	0xbc8c639b	-0.01713734
82	0xbd264604	-0.040594116
83	0x3dab4847	0.08363395
84	0x3da7f301	0.08200646
85	0x3c8fdb0c	0.017560504
86	0x3de57c2a	0.11205323
87	0x3ce41550	0.027842194
88	0xbd5fe025	-0.05465712
89	0xbc8ae164	-0.016953178
90	0x3c3d9270	0.011570558
91	0xbc9dfb56	-0.019284885
92	0x3dd615cc	0.10453376
93	0xbd1a2d42	-0.037640817
94	0x3d9e04e6	0.07715778
95	0x3db6ea86	0.089314505
96	0x3d8065f5	0.06269447
97	0xbd66415b	-0.05621467
98	0xbc5ea54a	-0.013589213
99	0x3d202e7b	0.039106827
100	0xbd908da8	-0.07058269
101	0xbdb1d45a	-0.08683081
102	0x3ae859b0	0.0017726924
103	0x3c4f5ec0	0.0126568675
104	0xbd94730e	-0.072485074
105	0x3cb18dbf	0.021674035
106	0x3bc3ba4e	0.005973137
107	0xbd9b6042	-0.07586719
108	0x3dd65b9d	0.104666926
109	0xbd0de066	-0.03463783
110	0x3d5f4444	0.054508463
111	0x3d4c09aa	0.049813904
112	0xbdd8c7cf	-0.105849855
113	0x3bd2dad0	0.006434776
114	0x3d9d199a	0.07670899
115	0xbddb6a84	-0.107136756
116	0x3ce6e663	0.028186029
117	0x3cc5fd4a	0.02416863
118	0xbdb64e6c	-0.089016765
119	0x3dcdaa7a	0.100422814
120	0x3e0957b5	0.13412364
121	0xbd27689a	-0.04087124
122	0xbd598147	-0.053101804
123	0x3d3ed267	0.046587374
124	0x3b8e2d80	0.00433892
125	0x3d9bb3ee	0.07602678
126	0x3d8e92b4	0.06961575
127	0x3d9e3c35	0.07726327
128	0x3da372e2	0.079808965
129	0x3d6998b4	0.057030395
130	0x3dc5e6ec	0.096631855
131	0xbdc5556e	-0.09635435
132	0x3cb3a868	0.021930888
133	0x3dde29be	0.108478054
134	0xbd375842	-0.044761904
135	0xbc94f4ed	-0.018183196
136	0x3db5e612	0.08881773
137	0x3db99ec6	0.09063487
138	0xbc858548	-0.016298905
139	0xbca76278	-0.020432696
140	0x3bdf2fa0	0.0068110973
141	0x3db7d9f3	0.089771174
142	0x3bca5cfd	0.006175636
143	0x3df8e5f2	0.121532336
144	0xbc274511	-0.010209338
145	0x3e07e20d	0.13269825
146	0x3ad47100	0.0016207993
147	0x3d079aa4	0.03310646
148	0x3d73436c	0.05939047
149	0x3d7cc4ac	0.061711
150	0x3dd24073	0.10266199
151	0x3d9bc5b0	0.07606065
152	0xbda269b3	-0.07930317
153	0xbe1c815b	-0.1528372
154	0x3d659f7c	0.0560603
155	0xbda0b280	-0.07846546
156	0x3d0c9fa0	0.034331918
157	0xbdbf5e59	-0.09344167
158	0xbdae3b4e	-0.08507405
159	0xbd6636d4	-0.056204632
160	0x3d81ce9f	0.06338238
161	0x3ddb1d1e	0.10698913
162	0x3da577f5	0.080795206
163	0xbd70899a	-0.058724977
164	0xbde08312	-0.109625
165	0x3e13ce33	0.14434128
166	0xbdc33ffb	-0.09533688
167	0x3d99f266	0.07516937
168	0x3ce072a0	0.027398407
169	0x3d41af66	0.047286414
170	0x3d965e80	0.07342243
171	0xbcd2e24d	-0.025742674
172	0xbda56f55	-0.080778755
173	0xbd9295ef	-0.07157504
174	0xbc905e70	-0.017623156
175	0xbd41e1cc	-0.047334477
176	0xbd698734	-0.057013705
177	0xbd401e0e	-0.046903662
178	0xbc629d00	-0.013831377
179	0x3cdb0c86	0.02673937
180	0xbbfe5936	-0.0077620996
181	0x3db8fcf6	0.090326235
182	0x3d005814	0.031333998
183	0x3de9a8ee	0.11409174
184	0xbc30a6cb	-0.010781954
185	0xbca7f0fc	-0.020500652
186	0x3d6e023a	0.058107592
187	0xbd92f22f	-0.07175099
188	0xbd0d8c60	-0.0345577
189	0xbdc6b504	-0.09702495
190	0xbd6d7218	-0.057970136
191	0x3d0e5c1c	0.03475581
192	0x3d082b14	0.033244208
193	0x3d50a344	0.050936952
194	0x3dacda44	0.08440068
195	0xbd918aec	-0.07106575
196	0x3d994e86	0.0748568
197	0x3dded0f8	0.108797014
198	0x3dcba744	0.09944013
199	0x3cb2c1db	0.021820953
200	0x3d2497b2	0.04018373
201	0x3b3bdd75	0.0028665934
202	0x3d8eff70	0.069823146
203	0xbc4498c0	-0.011999309
204	0x3b945280	0.0045264363
205	0x3cc88bec	0.024480782
206	0xbd8f7568	-0.07004815
207	0xbd7b9658	-0.061422676
208	0xbd9773ce	-0.07395135
209	0xbde8347c	-0.113381356
210	0x3d0bd2bc	0.03413652
211	0xbcee6255	-0.029099623
212	0xbcae4f93	-0.021278178
213	0xbd8b869d	-0.06812785
214	0xbb1a0009	-0.0023498556
215	0x3d1c7538	0.038197726
216	0x3d7c5a83	0.061609756
217	0x3c244faa	0.010028759
218	0x3dabbbaa	0.083854035
219	0x3ddc70c4	0.10763696
220	0xbdafdef0	-0.08587444
221	0xbb66b1b2	-0.003520113
222	0x3db09a5a	0.0862319
223	0x3d388300	0.045046806
224	0xbd0f51bb	-0.034990054
225	0xbdca4454	-0.09876314
226	0xbd902bd9	-0.07039613
227	0x3d7d7843	0.06188227
228	0x3cee3de8	0.029082254
229	0x3d8ad6f9	0.06779284
230	0xbd835733	-0.06413116
231	0x3df29d38	0.11846393
232	0xbcd822a8	-0.026383713
233	0x3df3f598	0.11912078
234	0xbdd93341	-0.10605479
235	0xbdd426d0	-0.103589654
236	0x3db90c0d	0.09035502
237	0x3ddb4d48	0.107080996
238	0x3b9d08a0	0.004792288
239	0xbaffddea	-0.0019521092
240	0xbe05cfeb	-0.13067596
241	0x3b927140	0.004469067
242	0x3dd8924c	0.10574779
243	0x3c0f33bf	0.008740365
244	0xbdbc36fc	-0.09190175
245	0xbdde2d00	-0.10848427
246	0xbd8fd742	-0.07023479
247	0xbd3049ac	-0.04303901
248	0x3cc05fa3	0.023483103
249	0x3d7dbd03	0.061947834
250	0xbdc410d1	-0.0957352
251	0x3dd9bf05	0.10632137
252	0x3d783830	0.06060046
253	0xbd8f42f0	-0.06995189
254	0x3d821e10	0.0635339
255	0xbd5b56bf	-0.053549524

fc2.bias f4 [32]
0	0xbda65102	-0.0812092
1	0xbd09b776	-0.033622228
2	0x3dfc94ab	0.12333044
3	0xbe0749b2	-0.13211706
4	0xbe021ffb	-0.12707512
5	0x3be18eb2	0.0068834657
6	0x3de6d682	0.11271383
7	0x3d762060	0.06008947
8	0xbe0fc20e	-0.1403887
9	0xbd5d1205	-0.053972263
10	0x3db6719a	0.089083865
11	0xbdba1a8c	-0.09087095
12	0x3dc9f61a	0.09861393
13	0x3b93d379	0.0045112935
14	0xbd644471	-0.055729333
15	0x3bc04847	0.005867991
16	0x3de2a582	0.11066724
17	0xbd0ade59	-0.033903453
18	0xbcfd26e0	-0.030902326
19	0xbdaddb72	-0.084891215
20	0x3def3d2d	0.1168159
21	0xbc5d2164	-0.0134967305
22	0x3cb9d2ad	0.022683466
23	0xbbc6faef	-0.006072394
24	0xbdea6c94	-0.11446491
25	0x3a838fcd	0.0010037363
26	0xbe043ab7	-0.12913023
27	0x3d00794f	0.03136569
28	0x3d23e7c8	0.040015966
29	0x3d04fda1	0.032468442
30	0x3e055413	0.13020353
31	0xbdcc9773	-0.09989824

fc3.weight f4 [1, 32]
0	0xbd0e2e55	-0.034712154
1	0xbe248904	-0.16067892
2	0x3e0b2610	0.13588738
3	0xbd5fd5b6	-0.05464717
4	0xbde738c9	-0.11290128
5	0x3df08925	0.11744908
6	0xbc75b023	-0.014995608
7	0x3dd43290	0.103612065
8	0xbe0e9a3f	-0.13926028
9	0xbd2cb6f5	-0.04216667
10	0xbe1706c4	-0.14748675
11	0xbd2ab2c3	-0.041674387
12	0xbda7931c	-0.08182356
13	0xbdbf4c54	-0.0934073
14	0xbe0062ea	-0.12537733
15	0xbe26ee5e	-0.16301867
16	0x3bf25437	0.007395293
17	0xbcda15ac	-0.026621662
18	0xbdfae81c	-0.122513026
19	0x3d68c344	0.056826845
20	0xbe12cde7	-0.14336358
21	0xbdfa68f0	-0.122270465
22	0x3c40883b	0.01175123
23	0xbe0a2927	-0.13492261
24	0xbd0a9789	-0.03383592
25	0x3db45307	0.08804899
26	0xbde5a603	-0.11213305
27	0x3c8c619a	0.017136384
28	0x3db6ce54	0.08926073
29	0xbe1541b6	-0.14575848
30	0x3d2602d2	0.040530033
31	0xbdfbd666	-0.12296753
