models/jump_detection_model.pth (torch, 6730 bytes, 5 tensors)

fc1.weight f4 [32, 13]
0	0x3e356050	0.17712522
1	0x3db7827a	0.08960433
2	0x3e10c5a6	0.14137897
3	0xbe8ce39b	-0.275174
4	0xbe852e64	-0.26011956
5	0x3e4db8c6	0.20090017
6	0xbe36c3f7	-0.17848192
7	0x3e08a923	0.1334577
8	0x3e2b0271	0.1670015
9	0xbd9616c5	-0.07328562
10	0xbd91c5dd	-0.071178176
11	0xbe19aa44	-0.15006357
12	0x3e230590	0.1592009
13	0xbdd5d4bb	-0.10440966
14	0x3e48fd92	0.1962798
15	0x3bcb7efe	0.006210207
16	0xbc889796	-0.016673844
17	0xbd6d4273	-0.0579247
18	0x3e747b5d	0.23875184
19	0x3dea2cf7	0.114343576
20	0xbe6baacc	-0.23014373
21	0x3e722c87	0.23649798
22	0x3e77d9d0	0.24204183
23	0xbe4b8b04	-0.19877249
24	0xbc840c27	-0.016119076
25	0xbdea0df5	-0.11428443
26	0xbe415253	-0.1887906
27	0x3de3ea61	0.111286886
28	0x3e1c72e0	0.15278196
29	0x3e866500	0.26248932
30	0xbe94c84a	-0.29059058
31	0xbd5b6927	-0.053567078
32	0xbdf70e1f	-0.1206324
33	0x3dfa81f6	0.12231819
34	0xbe5b7ace	-0.21433565
35	0xbd974b0e	-0.073873624
36	0xbb097235	-0.0020972614
37	0xbe7ff252	-0.24994782
38	0x3cd45a5e	0.025921997
39	0xbe1f05d4	-0.15529567
40	0xbd6a527b	-0.057207566
41	0x3d8fb919	0.070177265
42	0xbe9b9494	-0.30386794
43	0xbe7eaca4	-0.24870545
44	0xbd998ea0	-0.07497907
45	0x3e557acf	0.20847629
46	0xbca8c5e2	-0.02060217
47	0x3e765f02	0.2405968
48	0xbd781a03	-0.06057168
49	0x3dee840d	0.116462804
50	0x3e409977	0.18808542
51	0xbe9e57d8	-0.30926394
52	0x3e08e54f	0.13368724
53	0x3d3a7d30	0.045529544
54	0x3e6a8d25	0.22905405
55	0x3e1160e2	0.14197114
56	0xbe41c6f2	-0.18923548
57	0x3c874abb	0.016515126
58	0x3e802d2e	0.2503447
59	0xbd189350	-0.037249863
60	0xbcc2e905	-0.023792753
61	0x3e2c54c0	0.16829205
62	0x3e3c8448	0.18409836
63	0xbe39a5ad	-0.18129607
64	0xbe4047f1	-0.18777443
65	0x3d6b4a63	0.057443988
66	0x3e9e0a17	0.30867073
67	0xbeaaaaa1	-0.33333305
68	0x3e4c58da	0.19955769
69	0x3e6483a9	0.2231585
70	0xbe3dee62	-0.18547967
71	0x3d957dfd	0.07299421
72	0x3e71ff68	0.23632586
73	0xbc9f05e6	-0.019411992
74	0xbd4577ea	-0.048210062
75	0x3e9c4798	0.30523372
76	0xbd0e0da5	-0.03468098
77	0x3df76a6b	0.120808445
78	0xbe1514de	-0.14558741
79	0xbe43784b	-0.19088857
80	0x3e8815f3	0.26579246
81	0xbe347e9e	-0.17626426
82	0x3ea15a9e	0.31514448
83	0x3e213704	0.15743643
84	0xbe340c62	-0.17582849
85	0x3e04342b	0.12910526
86	0x3dc2ef6a	0.09518321
87	0x3d79a8e5	0.060952086
88	0x3e5a63d9	0.21327151
89	0xbe1c5bde	-0.1526942
90	0xbc734963	-0.01484904
91	0x3df5d75d	0.12003968
92	0xbe18fa08	-0.1493913
93	0xbc638a53	-0.0138879595
94	0xbdc542dc	-0.09631893
95	0x3e758088	0.23974812
96	0xbdcc9251	-0.09988845
97	0x3da2b9d3	0.079455994
98	0x3daac918	0.08339137
99	0xbe50a18b	-0.20374124
100	0xbdf762aa	-0.120793656
101	0xbe9109b0	-0.28327703
102	0xbdaaa97f	-0.0833311
103	0xbe150f4b	-0.14556615
104	0xbe32d8ae	-0.17465469
105	0x3dc97a84	0.09837821
106	0x3cf167ca	0.029468436
107	0xbcc788f9	-0.024357306
108	0x3d8bc7ec	0.068252414
109	0x3ea32e54	0.31871283
110	0x3d0b5450	0.034015954
111	0x3da9b259	0.0828597
112	0x3dd27452	0.102760926
113	0x3e0521e0	0.13001204
114	0x3d375b3d	0.044764746
115	0xbe13c35c	-0.14429992
116	0xbe87eae1	-0.26546386
117	0xbcec9ff9	-0.028884875
118	0xbdc5b874	-0.09654322
119	0xbde5ae20	-0.11214852
120	0xbdb98506	-0.09058575
121	0xbe3a2a2f	-0.18180154
122	0x3e50c99d	0.2038941
123	0x3e116d9a	0.14201966
124	0x3db0179a	0.08598252
125	0xbe32af8d	-0.1744978
126	0xbdb8d4af	-0.09024941
127	0x3bda5948	0.006663475
128	0x3e8823bc	0.26589763
129	0x3e9e08d6	0.30866116
130	0xbdea785c	-0.11448738
131	0x3e6408a2	0.22268918
132	0xbbb634fd	-0.005560516
133	0xbe3609e4	-0.1777721
134	0xbe889712	-0.26677758
135	0xbddb6913	-0.10713401
136	0x3e65b1af	0.22431062
137	0xbe46cdda	-0.19414464
138	0x3e7ae02a	0.24499574
139	0xbe2185e5	-0.15773733
140	0x3e655e7e	0.22399327
141	0xbe5c7b49	-0.21531405
142	0x3c139b2c	0.009009164
143	0xbd58409a	-0.052795984
144	0xba342f02	-0.000687346
145	0x3e49513b	0.19659893
146	0x3e07f92e	0.13278648
147	0xbe6c7391	-0.2309096
148	0xbccf2d48	-0.025290146
149	0x3e6e9f12	0.23302868
150	0x3ddd5993	0.108081006
151	0x3e8eed8b	0.27915606
152	0xbe130223	-0.14356284
153	0x3e1cf294	0.15326911
154	0x3d137cd9	0.036007736
155	0xbcec35e1	-0.028834285
156	0xbdf789a1	-0.120867975
157	0xbdc892aa	-0.09793599
158	0x3d721800	0.05910492
159	0x3deef020	0.11666894
160	0x3d13e2f7	0.036105122
161	0x3d8b325d	0.067967154
162	0xbe3ddb7c	-0.18540758
163	0xbe087141	-0.13324453
164	0xbc6c7b90	-0.0144337565
165	0x3d8dfc8e	0.069329366
166	0xbe5fd4e5	-0.21858557
167	0x3e664f52	0.22491196
168	0x3d82d255	0.06387774
169	0xbdffa25e	-0.12482141
170	0xbe262991	-0.16226794
171	0xbd5f55ec	-0.0545253
172	0xbe50f9cf	-0.20407794
173	0xbe4f2818	-0.20230138
174	0x3cf26e80	0.029593706
175	0x3c6d63e0	0.014489144
176	0x3e7422ce	0.23841402
177	0xbd54f7e4	-0.05199422
178	0xbb24be80	-0.002513796
179	0xbe49215e	-0.19641635
180	0x3e3235c4	0.17403322
181	0xbe522a88	-0.20524037
182	0x3d8a0a0e	0.06740199
183	0x3c8681b0	0.016419262
184	0x3cefc8c8	0.029270545
185	0x3e2cf10b	0.16888826
186	0x3e7d3902	0.24728778
187	0x3e0b50f2	0.13605097
188	0xbd26a8c1	-0.04068828
189	0xbd27f860	-0.041008353
190	0xbe13d080	-0.14435005
191	0x3c7d64a8	0.015465893
192	0xbdcf3999	-0.10118408
193	0xbe7eccc2	-0.24882796
194	0x3e13af2e	0.14422294
195	0xbe0348da	-0.1282076
196	0xbe3cef68	-0.18450701
197	0xbe2b13e3	-0.16706805
198	0x3d6b2788	0.057410747
199	0xbdb96180	-0.090518
200	0xbdf75a3c	-0.12077758
201	0x3e8bd9fb	0.27314743
202	0xbe82c772	-0.2554279
203	0xbe1cd5a2	-0.1531587
204	0x3e503014	0.2033084
205	0x3e5b0758	0.2138952
206	0xbe8899fc	-0.2667998
207	0xbe3eaf29	-0.18621506
208	0x3e1dbd2a	0.15404192
209	0xbdf08725	-0.11744527
210	0xbdd83e61	-0.10558773
211	0x3dfa9b52	0.12236656
212	0x3e7051da	0.23468724
213	0x3ddeeece	0.10885392
214	0xbe3a70a0	-0.18207026
215	0xbcd750bc	-0.026283614
216	0xbdeeaa51	-0.11653579
217	0x3e1b9d23	0.15196662
218	0xbdd20b0c	-0.10256013
219	0x3e556c87	0.20842181
220	0xbe4701da	-0.194343
221	0xbd648d54	-0.055798844
222	0xbe8593ee	-0.26089424
223	0xbda8085c	-0.082047194
224	0xbd31c95c	-0.043404922
225	0xbdd5a40a	-0.104316786
226	0xbe317788	-0.17330754
227	0x3dfedd3c	0.12444541
228	0xbd857c8c	-0.06517896
229	0xbca42fb0	-0.02004227
230	0x3d795220	0.060869336
231	0xbe1b22c0	-0.15149975
232	0xbe7c68ea	-0.24649397
233	0x3e6a1416	0.22859225
234	0x3e47a0cb	0.19494931
235	0xbc33405a	-0.010940636
236	0xbdcefc28	-0.10106689
237	0x3e8d7680	0.2762947
238	0x3df3defc	0.11907765
239	0xbdf8544a	-0.12125452
240	0x3e470cbc	0.19438452
241	0x3de38ffe	0.11111449
242	0x3e51fb15	0.20505936
243	0x3e72bf53	0.23705797
244	0x3dbea75c	0.09309265
245	0x3dc830f8	0.09774965
246	0x3d920659	0.07130117
247	0x3df04947	0.117327265
248	0xbdac0bea	-0.0840071
249	0xbe574665	-0.21022947
250	0x3d22e0f4	0.039765313
251	0xbe69eec8	-0.22844994
252	0x3dce5819	0.10075397
253	0xbc8d8b93	-0.017278468
254	0xbe0743bb	-0.13209431
255	0x3e47a032	0.19494703

fc1.bias f4 [32]
0	0xbde0973a	-0.10966344
1	0xbd7c1407	-0.061542537
2	0xbcd9df2c	-0.026595674
3	0x3d96311c	0.073335856
4	0xbe84bac5	-0.25923744
5	0x3e608897	0.21927105
6	0x3d86c649	0.06580789
7	0x3e5f0e7d	0.2178287
8	0x3e3d1fc1	0.18469144
9	0x3e373a79	0.178934
10	0xbd40f9fc	-0.047113404
11	0xbbf3ba23	-0.0074379607
12	0x3e18883f	0.14895724
13	0xbe488faa	-0.19586053
14	0x3d87fc66	0.06639938
15	0xbe81ee21	-0.2537699
16	0xbda71135	-0.08157579
17	0xbe275188	-0.16339695
18	0x3e3782fc	0.1792106
19	0x3e7d1ae5	0.2471729
20	0xbe8566c0	-0.26054955
21	0x3e776e4c	0.24163169
22	0x3e34f241	0.17670538
23	0xbe0185d7	-0.12648712
24	0xbe6b20c2	-0.22961715
25	0xbe1f2829	-0.15542664
26	0x3d86cd70	0.06582153
27	0x3d5a1731	0.053244773
28	0x3b016965	0.0019746658
29	0xbe6746a9	-0.22585548
30	0x3d417a05	0.047235508
31	0x3df7217b	0.12066933

fc2.weight f4 [16, 32]
0	0xbda11909	-0.07866103
1	0x3d9bb312	0.07602514
2	0x3df6b52e	0.12046276
3	0x3e059084	0.1304341
4	0x3e464b84	0.19364744
5	0xbd37d3a4	-0.04487957
6	0x3e28a87f	0.16470526
7	0xbda01214	-0.07815948
8	0x3e134b22	0.1438413
9	0xbe24de06	-0.1610032
10	0x3d9f7e22	0.0778773
11	0xbe52e59e	-0.20595405
12	0x3d625a24	0.055261746
13	0x3d6e1860	0.058128715
14	0x3d80a280	0.062809944
15	0x3c38b8d0	0.0112745315
16	0x3dec4281	0.11536122
17	0xbe0127bc	-0.12612814
18	0xbdceceff	-0.10098075
19	0x3d1c35a5	0.038137097
20	0x3d7e62a8	0.062105805
21	0x3dc9fe87	0.09863
22	0xbe045c8d	-0.1292593
23	0xbd3d7e2e	-0.046262912
24	0x3de2af92	0.11068644
25	0xbdedd0c1	-0.11612082
26	0x3d7a6fb1	0.061141673
27	0x3e46cc53	0.19413881
28	0x3e00de47	0.12584792
29	0x3d2121fa	0.039339043
30	0xbdfa87ff	-0.122329704
31	0x3dad6f7a	0.08468528
32	0xbd6e3932	-0.058160014
33	0x3dbe64d3	0.092965744
34	0x3e3dc9c2	0.18533996
35	0x3e301a01	0.1719742
36	0xbe0b255f	-0.13588475
37	0x3aa865a6	0.0012847676
38	0x3e02969b	0.12752764
39	0xbd1fc467	-0.039005663
40	0xbd656ebf	-0.05601382
41	0x3abaac24	0.0014241976
42	0x3d76ac97	0.06022319
43	0xbdc0d8f1	-0.09416378
44	0x3dbb5bb2	0.09148349
45	0xbe0f0f67	-0.1397072
46	0xbde69749	-0.11259324
47	0xbe14ff2b	-0.14550464
48	0xbc58647b	-0.01320755
49	0x3da72f72	0.08163346
50	0xbe0f8c61	-0.14018394
51	0xbe3ce67a	-0.18447295
52	0xbd911b94	-0.07085338
53	0x3e39e94b	0.181554
54	0xbcba347d	-0.022730106
55	0x3e44575e	0.19173953
56	0xbda0401b	-0.07824727
57	0xbe210c96	-0.15727457
58	0xbc852334	-0.016252138
59	0x3cfaa00e	0.030593898
60	0x3e62d090	0.22149873
61	0xbdc9da1b	-0.098560534
62	0x3bc80074	0.0061035696
63	0xbe3a6439	-0.18202294
64	0xbc9f9961	-0.019482316
65	0xbcf957a3	-0.030437296
66	0x3da31a7b	0.07964035
67	0x3e0f5729	0.13998093
68	0xbd4b48e1	-0.04963005
69	0xbdb72aea	-0.08943732
70	0x3e32630d	0.17420597
71	0x3e063a49	0.13108172
72	0x3e3591d9	0.17731418
73	0xbc4e98f8	-0.012609713
74	0x3db1f352	0.08688988
75	0x3daeb369	0.085303135
76	0xbd331844	-0.043724313
77	0xbe2e76f4	-0.17037565
78	0xbabd8a4d	-0.0014460773
79	0x3e07ce47	0.13262282
80	0xbda0e9e6	-0.078571126
81	0xbdd6db95	-0.10491101
82	0x3c749473	0.014927971
83	0x3db1f20f	0.08688747
84	0xbdfbda04	-0.122974426
85	0x3e42fb64	0.1904121
86	0xbd049658	-0.03236994
87	0x3e4fc432	0.20289686
88	0xbd8c9d98	-0.06865996
89	0xbdf3bdad	-0.11901412
90	0x3d21d8aa	0.039513268
91	0x3e6842b0	0.2268169
92	0x3e2289d4	0.1587289
93	0xbd720f62	-0.0590967
94	0x3e1fca41	0.15604497
95	0x3e1b7119	0.15179862
96	0xbe09284f	-0.13394283
97	0x3dec9776	0.115523264
98	0x3d8791ea	0.06619628
99	0x3e0b37a7	0.13595448
100	0xbe302aac	-0.17203778
101	0xbce351ba	-0.027748931
102	0x3d5cfb07	0.053950336
103	0x3d76377f	0.06011152
104	0xbd97960f	-0.07401668
105	0xbde843a5	-0.11341027
106	0xbe2eb6f8	-0.17061985
107	0x3e1ee95d	0.15518709
108	0xbe3c3dcb	-0.18382947
109	0x3e18c61d	0.14919324
110	0x3dd9476b	0.10609325
111	0xbdec84ea	-0.11548789
112	0x3da3527c	0.07974717
113	0x3e1f64b7	0.15565763
114	0x3d9d04bd	0.076669194
115	0x3dc77e3d	0.09740875
116	0x3d289c34	0.041164592
117	0xbde7fc55	-0.113274254
118	0x3e00da2d	0.12583227
119	0x3d2e5270	0.042559087
120	0xbd2644a4	-0.040592805
121	0x3e114c89	0.14189352
122	0xbc7aad1a	-0.01530006
123	0x3d00a9a9	0.0314118
124	0xbbc44560	-0.0059897155
125	0xbdce3c22	-0.10070063
126	0xbd15c1a3	-0.03656162
127	0x3d6ff190	0.05857998
128	0x3daf8af7	0.08571427
129	0x3d223878	0.039604634
130	0x3b8c2efb	0.0042780614
131	0x3dfe07e6	0.1240385
132	0x3e45433d	0.1926393
133	0x3d46d42a	0.04854218
134	0xbdd11e11	-0.10210813
135	0xbd777562	-0.06041468
136	0xbdc07641	-0.09397555
137	0xbd970661	-0.073742636
138	0x3d1ed978	0.038781613
139	0x3dbc269a	0.0918705
140	0x3e31a054	0.17346317
141	0x3e0f3a23	0.13987021
142	0x3e28b757	0.16476189
143	0xbe30054a	-0.17189518
144	0xbd9a06ee	-0.07520853
145	0x3ce58de8	0.028021768
146	0x3d562001	0.052276615
147	0x3de16723	0.11006
148	0x3d8229d2	0.06355633
149	0xbd4f20e2	-0.05056847
150	0x3dcc1bd2	0.09966244
151	0x3e2d0c27	0.16899167
152	0xbde9760f	-0.11399471
153	0x3d05fc74	0.03271146
154	0xbd4a4b2a	-0.04938809
155	0x3d067bbf	0.032832857
156	0xbdc4f559	-0.09617109
157	0x3e12efee	0.14349338
158	0x3d5c36fe	0.053763382
159	0xbd4bc568	-0.04974881
160	0xbdc7cbbe	-0.097556576
161	0xbe5063fb	-0.2035064
162	0x3b8969d4	0.004193524
163	0xbe2c40ab	-0.16821544
164	0x3d000e54	0.031263664
165	0x3e3d389d	0.18478628
166	0xbe4d9ad2	-0.2007859
167	0xbe10e5c5	-0.1415015
168	0xbd221751	-0.039573018
169	0x3d1760c5	0.03695752
170	0xbe3a6260	-0.1820159
171	0x3d873a53	0.06602921
172	0x3d691ab4	0.05691023
173	0x3c604c00	0.013689995
174	0x3db26c15	0.08712021
175	0x3e1b35d3	0.15157251
176	0xbe28094c	-0.16409796
177	0x3d276168	0.04086438
178	0xbd852ef3	-0.065030955
179	0x3e15fd9b	0.14647524
180	0xbdb4edd9	-0.08834428
181	0x3dc9a9e7	0.098468594
182	0x3e3729cf	0.17887042
183	0xbe12e716	-0.14345965
184	0xbcf30304	-0.029664524
185	0x3e275c61	0.16343834
186	0x3e14fbde	0.14549205
187	0xbe09e153	-0.1346486
188	0x3e0450b8	0.12921417
189	0xbe61db0a	-0.22056213
190	0x3ca89a74	0.020581461
191	0x3e021487	0.12703143
192	0x3d577cfd	0.052609432
193	0xbd95e13c	-0.07318351
194	0xbc1eb877	-0.0096875345
195	0xbdf76b4c	-0.12081012
196	0x3e19821b	0.14991038
197	0x3dd129a7	0.10213023
198	0xbdb002a8	-0.08594257
199	0xbd08830b	-0.033328097
200	0x3ddb572a	0.107099846
201	0xbde3b9a4	-0.111193925
202	0x3d86dcce	0.06585084
203	0x3d52bf57	0.051452007
204	0x3e23f641	0.16011907
205	0xbe31d32d	-0.17365713
206	0x3e079e5d	0.13244005
207	0x3dfcfaf6	0.123525545
208	0x3da6e890	0.081498265
209	0xbe216e97	-0.15764843
210	0xbe1b1124	-0.15143257
211	0xbe172851	-0.14761473
212	0x3e0368d5	0.12832959
213	0xbd2dcef3	-0.04243369
214	0xbac8609a	-0.0015287579
215	0x3e33126b	0.17487495
216	0xbd345714	-0.044028357
217	0xbe06b6e2	-0.13155702
218	0x3e1116f0	0.14168906
219	0xbe016aea	-0.1263844
220	0xbdc1706c	-0.09445271
221	0xbd2f2e71	-0.0427689
222	0xbdc3dd31	-0.09563673
223	0xbe0acd41	-0.1355486
224	0xbd08ba90	-0.033381045
225	0x3d8880bf	0.06665181
226	0x3e265a59	0.16245402
227	0x3cbdc5d3	0.023165619
228	0xbe25e500	-0.16200638
229	0xbd083fbb	-0.033263903
230	0xbe2d45c8	-0.1692115
231	0x3c0bd0b0	0.008533642
232	0x3d5ac5f8	0.053411454
233	0xbe2ccb49	-0.16874422
234	0x3e0b2cd7	0.13591324
235	0xbe300ed2	-0.17193154
236	0xbdefdd42	-0.117121235
237	0xbdb032c0	-0.0860343
238	0xbdd148f0	-0.1021899
239	0x3cd23ce8	0.025663808
240	0xbbc29043	-0.0059376075
241	0xbd7017de	-0.05861651
242	0xbd964507	-0.07337385
243	0xbe264b27	-0.16239606
244	0x3cc69f28	0.024245813
245	0xbe03e85e	-0.1288161
246	0xbd9bd321	-0.07608629
247	0xbdb65fe0	-0.089050055
248	0xbe114c18	-0.14189184
249	0x3db7b78e	0.08970557
250	0xbe3ca959	-0.18423976
251	0xbe11634e	-0.14198038
252	0xbbf23080	-0.0073910356
253	0x3ded4e52	0.11587204
254	0x3e02d879	0.1277789
255	0xbd96c164	-0.07361105

fc2.bias f4 [16]
0	0x3e410548	0.18849671
1	0x3e59b3bc	0.2125997
2	0xbde9b0a6	-0.11410646
3	0xbe2cfca3	-0.16893248
4	0x3c99a0cb	0.01875343
5	0x3dc4a2be	0.09601353
6	0x3c9c932b	0.019113144
7	0x3d7bf13a	0.06150935
8	0xbddb3a19	-0.107044406
9	0xbd794b9e	-0.06086313
10	0x3e2024fc	0.15639108
11	0x3e115b45	0.14194973
12	0xbdd03ba4	-0.101676255
13	0xbd17f460	-0.03709829
14	0x3d405d49	0.046963964
15	0x3da7ce07	0.081935935

fc3.weight f4 [1, 16]
0	0x3e104d8f	0.14092086
1	0x3e0b0069	0.13574375
2	0x3e0a5eef	0.13512777
3	0x3de226b7	0.110425405
4	0x3c98eec2	0.018668536
5	0xbe97bdb9	-0.29636934
6	0x3d7ee5e1	0.06223095
7	0x3e3e100b	0.18560807
8	0x3e1954b5	0.1497372
9	0x3e65060a	0.22365585
10	0xbe1d7b55	-0.15379079
11	0xbe7164fc	-0.23573679
12	0xbc631100	-0.013859034
13	0x3e798146	0.2436572
14	0xbe8e40ba	-0.27783757
15	0xbbef2976	-0.0072986437
