models/jump_detection_model.pth (torch, 6730 bytes, 5 tensors)

fc1.weight f4 [32, 13]
0.034980938 -0.024506705 -0.15809605 0.22285974 0.107144445 0.17377366 0.09235285 0.16713528
0.10800941 -0.089246154 -0.24477313 0.07814438 0.16615807 -0.04594081 -0.09419572 0.2182217
-0.03399304 -0.12133832 -0.2374754 0.2752334 -0.22219506 0.24136181 0.16841401 -0.1983092
0.09643379 -0.016871264 -0.041339442 0.30626985 0.26445442 0.27269652 -0.17610875 -0.0063433954
-0.21701352 -0.1384198 0.27384144 0.06927367 -0.25526837 0.000749433 0.06925633 0.041624475
0.1999157 0.2646207 0.117876366 -0.16814758 0.010128864 -0.051577706 0.15142351 0.14263177
0.06115724 -0.0711258 0.07011444 0.076639086 0.11037019 -0.13707295 0.003866361 -0.21983083
-0.12344643 -0.12136226 0.25764817 -0.104024015 0.06515906 0.13296422 -0.15327327 0.17479189
0.11446714 0.14883104 0.17044494 0.20766386 -0.03293814 0.10120022 0.07820244 -0.2161554
-0.25054124 -0.10646927 -0.20225605 0.19045556 0.3028689 0.0315812 -0.10372585 0.10275996
0.18495321 -0.06267656 -0.13851678 -0.22277507 0.10249564 -0.19831343 -0.05360401 -0.107224084
0.16472185 0.170426 -0.09117782 -0.23917775 -0.1912274 0.27308556 0.2568344 0.25761425
-0.1957049 -0.1264501 -0.10715775 0.21630935 -0.179509 0.14864919 -0.082742535 0.1416449
-0.2731528 -0.28970078 0.11519807 0.17151742 0.19454344 -0.042308617 -0.0043932414 -0.027791077
0.020339733 -0.020830723 0.16840075 0.016028976 -0.15298061 0.20150772 -0.038810905 -0.2078324
0.038544383 -0.115243115 -0.31103033 0.17721476 0.16965735 -0.041439816 -0.021201752 0.18954973
-0.00795275 -0.040152393 -0.04259886 -0.09177145 -0.1840956 0.11615547 -0.18955907 0.09555942
0.2708357 0.14138311 -0.13404348 -0.034567717 0.22706327 -0.069512494 0.16548808 0.04091615
0.1518606 0.056144517 0.028533947 -0.09803352 0.27449203 -0.14312242 0.24572453 0.14943239
-0.10004968 0.13890702 0.09593213 0.20964491 0.036260415 0.22515501 0.060758706 -0.30198187
0.14845236 0.1768123 -0.15351698 0.14908944 0.1700726 -0.17024694 -0.07930706 -0.0012131182
-0.013875634 -0.11013006 -0.09703842 -0.032950558 0.020927964 -0.13608225 0.12854177 -0.07740099
0.20277107 -0.1527352 0.26601976 0.26319668 0.24147256 0.12258672 -0.23511524 -0.034275815
0.2044254 0.21331222 -0.17835219 -0.016025316 0.16871734 -0.22944213 -0.20771918 -0.104729965
-0.090662874 -0.21634333 0.26656634 -0.11692439 -0.059798546 0.27416053 -0.07738499 0.065142274
0.1844079 0.19815312 0.21740697 0.050610576 -0.26526096 -0.21882279 0.00076499186 -0.17114216
-0.19049555 0.030651037 0.275327 -0.25707442 0.13361481 0.16530605 -0.066130385 0.016602118
0.037611187 0.1035688 0.2763764 -0.21454628 -0.2538109 -0.098962024 -0.22712426 0.084078796
-0.27999765 -0.13188015 0.17907669 -0.16696544 -0.21618415 0.19519587 -0.06691639 -0.27399045
0.13822602 -0.125318 -0.24050589 0.018808926 -0.026788017 -0.16454084 0.041748133 -0.15583248
-0.24376784 0.004387387 -0.02747589 0.20765565 -0.0009527617 0.16917683 0.13296467 -0.097139694
-0.02933711 0.23238814 0.09860181 0.23121428 0.08041549 0.26114118 -0.23413649 -0.13974959
00000000: 2c48 0f3d 49c2 c8bc eee3 21be 5835 643e
00000010: 8c6e db3d b9f1 313e 7e23 bd3d 8325 2b3e
00000020: 0a34 dd3d b0c6 b6bd cfa5 7abe 290a a03d
00000030: 5725 2a3e 6e2c 3cbd b0e9 c0bd 8275 5f3e
00000040: 493c 0bbd 3a80 f8bd c02c 73be 64eb 8c3e
00000050: 1a87 63be 8d27 773e b974 2c3e 9111 4bbe
00000060: 147f c53d 9b35 8abc 8c53 29bd 67cf 9c3e
00000070: 9266 873e e19e 8b3e da55 34be 42dc cfbb
00000080: cb38 5ebe ecbd 0dbe f234 8c3e 5bdf 8d3d
00000090: 89b2 82be 9975 443a 43d6 8d3d 6d7e 2a3d
000000a0: b4b6 4c3e 5d7c 873e 2a69 f13d e12e 2cbe
000000b0: 89f3 253c 2543 53bd c40e 1b3e 100e 123e
000000c0: 0480 7a3d 67aa 91bd 2998 8f3d f4f4 9c3d
000000d0: c409 e23d da5c 0cbe c662 7d3b 551b 61be
000000e0: 7bd1 fcbd c78c f8bd 76ea 833e 8b0a d5bd
000000f0: 1d72 853d c627 083e abf3 1cbe a5fc 323e
00000100: bf6d ea3d 2a67 183e 1e89 2e3e d6a5 543e
00000110: 25ea 06bd 1042 cf3d 9a28 a03d d757 5dbe
00000120: f146 80be 900c dabd 361c 4fbe c806 433e
00000130: a211 9b3e 4a5b 013d 386e d4bd d073 d23d
00000140: 6064 3d3e 915c 80bd 58d7 0dbe 261f 64be
00000150: 3ce9 d13d ad12 4bbe e18f 5bbd 4d98 dbbd
00000160: d8ac 283e 2784 2e3e 70bb babd 03eb 74be
00000170: 1ed1 43be dfd1 8b3e cc7f 833e 04e6 833e
00000180: de66 48be 237c 01be 8675 dbbd 3380 5d3e
00000190: 35d1 37be 7e37 183e eb74 a9bd 5c0b 113e
000001a0: afda 8bbe a953 94be f7ec eb3d 43a2 2f3e
000001b0: 6536 473e cd4b 2dbd 2ef5 8fbb 1daa e3bc
000001c0: 839f a63c 31a5 aabc 3f71 2c3e 334f 833c
000001d0: f3a6 1cbe 0a58 4e3e 2ff8 1ebd 04d2 54be
000001e0: b7e0 1d3d 9504 ecbd 5e3f 9fbe c977 353e
000001f0: a8ba 2d3e ccbc 29bd 4caf adbc 5319 423e
00000200: 404c 02bc d676 24bd 247c 2ebd acf2 bbbd
00000210: 8f83 3cbe ebe2 ed3d c61b 42be a8b4 c33d
00000220: faaa 8a3e bcc6 103e b242 09be e196 0dbd
00000230: 4683 683e 915c 8ebd b575 293e b197 273d
00000240: 5881 1b3e cbf7 653d 06c0 e93c ccc5 c8bd
00000250: 388a 8c3e af8e 12be 369f 7b3e ce04 193e
00000260: d9e6 ccbd a43d 0e3e 1178 c43d 28ad 563e
00000270: cd85 143d 098f 663e 1fde 783d 5e9d 9abe
00000280: e503 183e 490e 353e 8e33 1dbe e7aa 183e
00000290: 8327 2e3e 3755 2ebe bd6b a2bd 7e01 9fba
000002a0: a156 63bc de8b e1bd 14bc c6bd 2af7 06bd
000002b0: 1f71 ab3c 2559 0bbe 74a0 033e 6984 9ebd
000002c0: 38a3 4f3e 9e66 1cbe be33 883e b7c1 863e
000002d0: 9544 773e bf0e fb3d 0dc2 70be cc64 0cbd
000002e0: e454 513e 856e 5a3e f5a1 36be 8647 83bc
000002f0: 3dc4 2c3e e1f2 6abe 56b4 54be aa7c d6bd
00000300: 75ad b9bd 1b89 5dbe 627b 883e 0e76 efbd
00000310: 52ef 74bd c55e 8c3e 067c 9ebd 5069 853d
00000320: 6dd5 3c3e a7e8 4a3e ef9f 5e3e 094d 4f3d
00000330: 49d0 87be 1513 60be bc89 483a e43f 2fbe
00000340: 4411 43be e217 fb3c a9f7 8c3e 429f 83be
00000350: 52d2 083e fd45 293e 5e6f 87bd 2a01 883c
00000360: 300e 1a3d e11b d43d 3581 8d3e 05b2 5bbe
00000370: 81f3 81be 9aac cabd 4393 68be 8131 ac3d
00000380: da5b 8fbe 970b 07be e15f 373e fdf8 2abe
00000390: 615f 5dbe 6de1 473e 760b 89bd 7a48 8cbe
000003a0: 1f8b 0d3e 5d53 00be 2d47 76be 2d15 9a3c
000003b0: 8b72 dbbc 657d 28be 1700 2b3d 8d92 1fbe
000003c0: 479e 79be 12c4 8f3b 1e15 e1bc afa3 543e
000003d0: c1c2 79ba b13c 2d3e e427 083e 2df1 c6bd
000003e0: 6154 f0bc 28f7 6d3e bfef c93d 70c3 6c3e
000003f0: e0b0 a43d 4cb4 853e 7ac1 6fbe 841a 0fbe

fc1.bias f4 [32]
-0.005137693 0.053439394 -0.2010493 -0.05723094 -0.17813028 -0.09771171 0.045563515 0.09111887
0.18971612 -0.083916895 0.029369779 0.22358246 -0.027307296 0.19934571 0.22616336 0.18937175
0.07498534 -0.023154173 0.0006226491 0.15785103 -0.27480876 0.23833494 -0.21440725 -0.22625391
0.26580754 0.0038374662 -0.056407124 0.15243305 0.24254623 0.27328405 0.25719365 -0.27425614
00000000: 185a a8bb 44e3 5a3d dedf 4dbe fd6a 6abd
00000010: c967 36be 141d c8bd cfa0 3a3d 889c ba3d
00000020: f144 423e 9fdc abbd e498 f03c cdf2 643e
00000030: 8db3 dfbc 4821 4c3e 5e97 673e abea 413e
00000040: ea91 993d d2ad bdbc 4639 233a b3a3 213e
00000050: bcb3 8cbe 130e 743e 938d 5bbe 1baf 67be
00000060: ed17 883e 007e 7b3b 280b 67bd 6917 1c3e
00000070: 0a5e 783e e3eb 8b3e e3ae 833e 4d6b 8cbe

fc2.weight f4 [16, 32]
-0.01766187 -0.11693297 -0.10271933 -0.17574245 -0.02002354 0.05735606 0.0021935254 0.030804366
-0.0025627017 0.105714634 -0.15955825 0.15631087 -0.06968416 0.020091504 -0.1365928 -0.013996437
-0.06686998 -0.1622939 0.005574569 -0.17526598 -0.042051405 -0.16735116 -0.16940287 -0.09031109
0.054297715 0.026275024 0.13507329 -0.11021325 -0.01290454 -0.04014902 -0.077988505 0.17549343
-0.075798005 0.04333687 -0.012442529 -0.020252362 0.030025885 -0.064390644 -0.16257207 0.100443855
-0.038222954 -0.059785977 0.12081577 0.065041095 0.10110752 -0.06205689 -0.062291674 -0.16737963
-0.018826723 0.07211633 -0.124498524 -0.13685204 -0.14493704 -0.06703363 -0.09830111 0.09306811
0.014471367 -0.02014324 -0.1057091 -0.04742393 -0.050296888 -0.0018039048 -0.027519196 0.16752769
0.111767374 0.039182194 0.10957054 -0.14346267 0.047017522 -0.18407844 0.041527253 -0.026578108
0.20453401 0.059453443 0.163744 0.09012482 0.048186444 -0.035806734 0.114615284 -0.085766226
0.085701026 0.012843142 0.113894224 -0.11845318 0.14786659 0.127798 -0.052878723 -0.09528763
-0.0340527 0.1327676 -0.055081084 -0.09921546 -0.093090385 -0.09837104 -0.0006931257 -0.11132569
-0.10959173 0.14432925 -0.14969215 0.06715585 0.14762814 -0.07671503 0.08945137 0.18743551
0.046210907 -0.19835556 -0.036538936 -0.105220154 0.027377963 -0.09574481 -0.03408638 -0.07585983
-0.01291884 -0.01062464 0.046889793 0.0976788 0.10072179 0.16018522 -0.10940774 0.14233643
0.15326874 -0.1262876 0.0061944397 -0.115755305 -0.15865831 -0.11035826 0.069675624 0.13967833
0.04990619 -0.09869441 -0.13445 -0.11158973 -0.084921174 0.15822034 -0.15174404 -0.003528232
-0.17631331 0.17646468 0.15482779 -0.108161196 0.14258823 0.018299043 -0.06452195 -0.16926652
-0.15295242 -0.01406382 0.05085409 -0.14149146 0.0842848 0.11467005 -0.17641918 -0.1561249
0.16148315 0.14398633 0.15637662 -0.14108086 0.14209212 -0.07674892 0.12555347 0.004996959
0.14062825 -0.16969049 -0.10854656 -0.08986273 -0.13253282 0.00048144226 -0.013228282 0.16812159
0.19940627 -0.06781774 -0.054032527 -0.10221643 0.06820872 -0.03815302 -0.09668986 -0.15567791
0.17484014 0.091574155 0.06346031 0.08061782 0.06244336 0.112473994 -0.20284681 0.07897992
0.025820032 -0.0510938 -0.07033894 -0.10073973 -0.115589224 -0.05352826 -0.003037489 0.11915224
0.14440641 0.16708824 0.060740616 0.052632134 -0.15732378 -0.1091762 -0.089788795 -0.034769792
-0.1253345 0.020234836 0.028547542 -0.042680226 0.19417539 -0.12788053 -0.03990808 0.18731941
0.16383152 -0.08855692 -0.054029543 0.07262433 0.15852012 0.12243527 0.08829175 -0.03348375
0.021259697 0.109780595 -0.1735037 0.22143286 -0.054002073 0.046629906 0.023744177 0.05644303
-0.17018768 0.11049877 -0.12409193 -0.05097185 -0.059985287 0.023494273 -0.06787333 0.09798016
0.027477741 -0.047648385 0.09180014 -0.03440611 0.1076556 -0.15271129 0.002320528 -0.03590755
0.024179474 -0.019239187 0.034729406 -0.17058715 -0.12660003 -0.08770036 0.13240044 0.030311167
0.084099725 -0.052539796 -0.12813567 0.15243529 -0.09358853 0.1447771 -0.017657697 -0.008557051
00000000: a0af 90bc 8e7a efbd 835e d2bd d4f5 33be
00000010: 6808 a4bc 30ee 6a3d 40c1 0f3b 7059 fc3c
00000020: 00f3 27bb ea80 d83d 3d63 23be f50f 203e
00000030: 92b6 8ebd f096 a43c fcde 0bbe 5051 65bc
00000040: 21f3 88bd 5f30 26be e0aa b63b ed78 33be
00000050: 183e 2cbd 1a5e 2bbe f277 2dbe 05f5 b8bd
00000060: 4867 5e3d b83e d73c a750 0a3e 7cb7 e1bd
00000070: 906d 53bc 4c73 24bd 70b8 9fbd 8db4 333e
00000080: fc3b 9bbd 0082 313d c0db 4bbc 48e8 a5bc
00000090: d8f8 f53c 3edf 83bd 4b79 26be 82b5 cd3d
000000a0: ac8f 1cbd 24e2 74bd 426e f73d 4434 853d
000000b0: 7611 cf3d 5e2f 7ebd 8e25 7fbd 9165 2bbe
000000c0: 803a 9abc bab1 933d 15f9 febd f122 0cbe
000000d0: 606a 14be ee48 89bd 1852 c9bd 7e9a be3d
000000e0: 5019 6d3c 7003 a5bc 037e d8bd 983f 42bd
000000f0: 1c04 4ebd 0071 ecba f06f e1bc 618c 2b3e
00000100: 4be6 e43d 827d 203d 8566 e03d e1e7 12be
00000110: 7295 403d 0f7f 3cbe 7b18 2a3d 55ba d9bc
00000120: 5d71 513e 7485 733d 82ac 273e 5d93 b83d
00000130: 265f 453d 15aa 12bd 6bbb ea3d 34a6 afbd
00000140: 0584 af3d 0b6c 523c 6041 e93d 9597 f2bd
00000150: 576a 173e 7bdd 023e 5c97 58bd 2926 c3bd
00000160: d87a 0bbd 3bf4 073e b49c 61bd 7a31 cbbd
00000170: 2ca6 bebd c176 c9bd e1b2 35ba b9fe e3bd
00000180: a171 e0bd 0ccb 133e e648 19be 0289 893d
00000190: d52b 173e c51c 9dbd 4832 b73d 18ef 3f3e
000001a0: a647 3d3d b81d 4bbe daa9 15bd aa7d d7bd
000001b0: c047 e03c db15 c4bd 299e 0bbd 665c 9bbd
000001c0: 8ba9 53bc f812 2ebc 830f 403d d30b c83d
000001d0: 3a47 ce3d 9807 243e 2a11 e0bd a4c0 113e
000001e0: 7bf2 1c3e 8951 01be bafa ca3b 1e11 edbd
000001f0: 5377 22be 8303 e2bd 18b2 8e3d d607 0f3e
00000200: 6f6a 4c3d 4b20 cabd 43ad 09be 2889 e4bd
00000210: 27eb adbd 8304 223e ca62 1bbe e939 67bb
00000220: 7a8b 34be 28b3 343e 2d8b 1e3e 9e83 ddbd
00000230: a602 123e e0e7 953c 1624 84bd 3454 2dbe
00000240: 8f9f 1cbe f06b 66bc 614c 503d 23e3 10be
00000250: 829d ac3d 22d8 ea3d 3ba7 34be 35df 1fbe
00000260: d75b 253e 2771 133e 3121 203e 8077 10be
00000270: 9980 113e 8a2e 9dbd 1791 003e 88bd a33b
00000280: da00 103e 58c3 2dbe a94d debd f309 b8bd
00000290: afb6 07be 166a fc39 70bb 58bc 1128 2c3e
000002a0: 2831 4c3e 07e4 8abd 3651 5dbd d956 d1bd
000002b0: 03b1 8b3d 5746 1cbd 5505 c6bd 086a 1fbe
000002c0: 4b09 333e 3b8b bb3d 7bf7 813d f51a a53d
000002d0: 9cc4 7f3d c458 e63d 13b7 4fbe 39c0 a13d
000002e0: 8884 d33c bc47 51bd dd0d 90bd a250 cebd
000002f0: 0bba ecbd 7340 5bbd 9c10 47bb 1706 f43d
00000300: 46df 133e 2e19 2b3e 27cb 783d cb94 573d
00000310: 7c19 21be c697 dfbd 30e3 b7bd c56a 0ebd
00000320: b057 00be 87c3 a53c 89dc e93c 76d1 2ebd
00000330: ead5 463e 1df3 02be a876 23bd a9d0 3f3e
00000340: 73c3 273e 555d b5bd 154e 5dbd 11bc 943d
00000350: 1953 223e 58bf fa3d 4ed2 b43d 4226 09bd
00000360: d128 ae3c a6d4 e03d f4aa 31be 4cbf 623e
00000370: 4731 5dbd 00ff 3e3d 2683 c23c ce30 673d
00000380: ae45 2ebe 2e4d e23d e923 febd dcc7 50bd
00000390: 22b3 75bd 1077 c03c 2c01 8bbd d2a9 c83d
000003a0: 0019 e13c f42a 43bd b601 bc3d 6ced 0cbd
000003b0: 8a7a dc3d 5960 1cbe 0014 183b cc13 13bd
000003c0: 0814 c63c 809b 9dbc 6c40 0e3d 66ae 2ebe
000003d0: 70a3 01be 3f9c b3bd fb93 073e 204f f83c
000003e0: 7a3c ac3d f833 57bd ff35 03be ff17 1c3e
000003f0: 58ab bfbd 7340 143e e0a6 90bc e032 0cbc

fc2.bias f4 [16]
-0.072893396 -0.1719 -0.0074961153 -0.08263531 -0.14805515 0.104561806 -0.119819514 -0.121672556
0.03813766 0.10029807 0.116322085 -0.10680928 -0.027241614 0.00092095864 -0.14412382 0.009910539
00000000: 2249 95bd 8e06 30be f9a1 f5bb b43c a9bd
00000010: c59b 17be 8024 d63d ef63 f5bd 762f f9bd
00000020: 3c36 1c3d 1369 cd3d 463a ee3d d3be dabd
00000030: ce29 dfbc 7d6c 713a 3295 13be d05f 223c

fc3.weight f4 [1, 16]
-0.06916365 0.17573693 0.17215635 0.2600988 -0.07251405 0.07189121 -0.23658352 -0.06874719
0.10222977 0.090823285 -0.13564572 0.21294084 0.22277652 0.10155271 0.24585019 0.029676693
00000000: aca5 8dbd 62f4 333e c149 303e ab2b 853e
00000010: 3f82 94bd b33b 933d f342 72be 54cb 8cbd
00000020: d75d d13d 8f01 ba3d b6e6 0abe 2a0d 5a3e
00000030: 871f 643e defa cf3d 27c0 7b3e 891c f33c
