models/jump_detection_model.pth (torch, 6730 bytes, 5 tensors)

fc1.weight f4 [32, 13]
000000 ff 4b 45 be 81 92 7d 3e 40 53 ac bd 96 74 8c 3e
       -0.19267271 0.24762918 -0.08414316 0.27432698
000010 c0 3b c8 bc f7 b2 1f bd 78 32 4e be e6 76 33 3e
       -0.024442554 -0.038989034 -0.2013644 0.17525825
000020 01 e9 38 be 36 05 3f 3d 47 b6 f0 3d 7e fe da 3d
       -0.18057634 0.04663583 0.11753517 0.10693072
000030 75 14 1b 3e a4 c1 4c 3d 88 0b ee 3d e5 a8 b9 3c
       0.15144522 0.049989358 0.11623293 0.022663543
000040 09 c9 8c be f9 a7 9b be 39 61 14 be 91 21 31 3e
       -0.27497128 -0.3040159 -0.14490213 0.17297961
000050 e0 3f 2d bc 34 70 9b be 68 5f 4e 3c 09 41 6a bc
       -0.010574311 -0.30359042 0.012595989 -0.014297732
000060 d4 8f 8e 3e 23 9f 03 3e ea c4 89 be 65 4d 25 3d
       0.27844107 0.12853675 -0.26908046 0.040357012
000070 09 5d 7b 3e 99 8d 80 bd 29 21 00 be 1d 76 40 3e
       0.24547209 -0.062770076 -0.1251265 0.18795057
000080 0c 2e 90 bd a4 a2 23 be f4 61 06 be c1 e3 7a 3c
       -0.07040033 -0.15980011 -0.13123304 0.01531309
000090 17 82 82 3e eb 39 72 be b8 ba 62 3e 15 64 7a 3e
       0.25489876 -0.23654906 0.2214154 0.24452241
0000a0 f2 94 64 bd e1 33 36 bd 81 52 76 bd fa fc 99 be
       -0.055806108 -0.04448307 -0.060137276 -0.30075818
0000b0 6e af a7 3d 6c da 9e 3d 3f 1e 4d be cb c7 85 be
       0.081877574 0.077565044 -0.20031069 -0.26128992
0000c0 d7 a8 de 3d ad 5f b6 3d 85 57 46 3e 22 39 ce 3d
       0.108720474 0.089049675 0.19369324 0.10069491
0000d0 d2 e0 ab 3d 4b ce 76 be 9a 08 81 bd f8 7e 32 3c
       0.083924904 -0.24102132 -0.06300469 0.0108945295
0000e0 e4 c4 72 3d a8 aa 6c 3e 2d 85 63 3e b6 87 3c bd
       0.0592698 0.23111975 0.22218771 -0.04602786
0000f0 fa 5c 95 be d1 30 57 be d6 d8 85 be 93 a0 65 be
       -0.29172498 -0.21014716 -0.26141995 -0.22424535
000100 2a f2 54 3d ae 32 6a be 36 42 67 be bd 93 e1 bd
       0.05198876 -0.22870895 -0.22583851 -0.11014507
000110 b4 43 40 bc aa ba 93 3d 6f 81 c3 bd 22 ca 61 be
       -0.011734892 0.07213338 -0.09546172 -0.22049764
000120 3a c5 50 be 57 b6 9a 3e 2d d4 f4 3d 7e a8 1e 3e
       -0.20387736 0.3021724 0.11954532 0.15493962
000130 67 63 9d 3e 9e ef fe bd 44 1d 1f 3e 51 60 e2 3d
       0.307399 -0.12448047 0.15538508 0.11053527
000140 96 c2 fb bd fd a8 48 3e 37 c5 19 3d a6 e4 93 3c
       -0.12292974 0.19595714 0.037541594 0.018053364
000150 ca fb cf bd bb 3a 87 3d a6 dd 5e be 30 1e 3e be
       -0.10155447 0.06602999 -0.2176424 -0.18566203
000160 23 54 46 be ca f5 6d 3e 3e 95 ba bd c1 cb f6 3d
       -0.19368033 0.23238292 -0.09110497 0.12050582
000170 e4 99 8b 3d 3a 15 7b 3e 57 a6 2b 3e 13 08 4e 3c
       0.06816462 0.24519816 0.16762672 0.012575167
000180 e2 f4 71 be 45 4f d3 3d 67 c1 85 3e 28 6e 1b bc
       -0.23628572 0.10317854 0.26124117 -0.0094867125
000190 a4 68 99 3d 7e 58 25 bc 5f 3f 0d 3e 2e 46 56 be
       0.07490662 -0.010091899 0.13793705 -0.20925209
0001a0 e3 bc 28 be bb 8b 3d be 0c cb c5 3d b8 b2 e2 bd
       -0.16478305 -0.18510334 0.09657869 -0.11069244
0001b0 40 05 d3 3d c7 82 06 bc 33 0a 99 3e 5a 60 9d 3e
       0.10303736 -0.008209891 0.29890594 0.30737573
0001c0 f5 e3 b3 bd a2 d8 86 3e 4f 61 d1 bd 05 6e 5b be
       -0.08783714 0.26337153 -0.10223638 -0.21428688
0001d0 36 cf 13 bd 02 c1 2f be 01 d7 40 3d 30 05 74 3b
       -0.036086284 -0.1716347 0.047080044 0.0037234537
0001e0 71 fb 38 3e f6 58 31 3e 32 20 04 3e c8 56 4c 3e
       0.18064667 0.17319092 0.12902907 0.1995498
0001f0 e3 3d 70 be 79 b1 36 3e 9c 08 6a be 61 a7 9c 3d
       -0.23461108 0.17841138 -0.22854847 0.076491125
000200 df a2 91 be 56 2e cf bb 47 3b 71 3e b6 05 85 3e
       -0.28444573 -0.0063226623 0.23557769 0.2598092
000210 cf 90 bf 3b bf 36 66 3e 3b 57 09 be 53 d6 80 3d
       0.00584612 0.22481821 -0.13412182 0.06290879
000220 6d 1f 47 be f0 ac 3b 3d 69 08 d6 bc 66 e1 93 3e
       -0.19445582 0.045819223 -0.026127057 0.28882903
000230 0a a0 93 3d 57 a3 f3 bd 1d d2 00 be 46 e5 55 be
       0.072082594 -0.11896389 -0.12580152 -0.20888242
000240 66 f0 82 3e 51 8d 5d be 93 54 1a 3d b5 06 98 3e
       0.25574034 -0.21635939 0.037678313 0.29692617
000250 fe 45 8b 3d 75 bd e7 3d c7 87 24 3d 0c 13 17 3e
       0.06800459 0.11315433 0.04016855 0.1475336
000260 f6 19 09 bd d6 72 49 be 5b 6c 0f 3c c8 db 99 3e
       -0.033472024 -0.19672713 0.008753861 0.30050492
000270 1f ce 2c be 4c 07 2f be 23 c3 31 be d6 94 4c 3e
       -0.16875504 -0.17092627 -0.17359595 0.19978651
000280 26 d5 c3 3d fd dc c0 bd dd c6 7a be 7f d4 17 bd
       0.09562139 -0.0941715 -0.24489923 -0.037067886
000290 39 18 9f 3e 81 f2 84 3e 8a 47 93 3e 67 01 89 3d
       0.31073168 0.25966266 0.28765517 0.066897206
0002a0 de be 27 be 34 1a 71 3e 29 d2 4c 3e d2 e3 df bd
       -0.16381404 0.23545152 0.20002045 -0.10932125
0002b0 81 9d 82 be cc ba 46 be be 3d 51 be d7 ad 81 3e
       -0.2551079 -0.19407195 -0.20433709 0.25327942
0002c0 53 fe 94 be 4a 7a 1d 3e ed d8 9e 3e 57 b3 5d be
       -0.29100284 0.15378681 0.31024876 -0.21650444
0002d0 27 b0 85 3e 01 ec 22 be 82 10 61 be 61 b3 0f bd
       0.26110956 -0.15910341 -0.21978953 -0.03508318
0002e0 b4 64 25 3e 90 67 f4 bd c0 78 28 3e 75 ff 08 be
       0.16151696 -0.119338155 0.16452312 -0.13378699
0002f0 a4 cc 4e 3e 46 40 29 be 79 ed 5e be dc 3c f0 3b
       0.20195252 -0.16528425 -0.21770276 0.0073314738
000300 d9 3b f2 3d d5 4e 14 3e 1a 3b a5 3c c9 2d a0 3e
       0.11827821 0.14483197 0.020169783 0.3128493
000310 bf 29 09 be d1 04 2d 3e cb 21 8c 3e 24 ca 68 bd
       -0.13394831 0.16896369 0.27369532 -0.0568334
000320 27 1a 93 3e a5 60 0d be b8 ff c7 bd a2 e7 0b 3e
       0.2873089 -0.13806398 -0.09765571 0.1366258
000330 c0 f8 8b 3e 18 03 52 be 9d 63 63 be 69 a8 6b be
       0.2733822 -0.20508993 -0.22205968 -0.23013462
000340 bc ba 77 3c 52 e4 ff bc 1b 2c 34 be 09 52 5a be
       0.015120205 -0.031236801 -0.1759495 -0.21320356
000350 2a 80 4c be 15 9f 1f 3e aa ba 4e be 9e 30 99 3d
       -0.19970766 0.15588029 -0.20188394 0.07479976
000360 ab 05 1f be 05 1f 68 3e d2 b3 f0 bd 54 3e b5 bd
       -0.15529506 0.22668083 -0.11753048 -0.08849779
000370 58 c6 43 be 36 6c 65 be 43 7e 5e be 8c 0b 3a 3e
       -0.19118631 -0.2240456 -0.21727853 0.18168467
000380 e0 ca c7 bd e9 1d 80 be d3 7f c4 bd 65 bf 07 be
       -0.09755492 -0.2502282 -0.09594693 -0.13256605
000390 56 a1 8d 3e 72 29 e2 3d f5 15 58 3d 97 7f 8a be
       0.27662152 0.11043061 0.052755315 -0.27050468
0003a0 49 e0 25 3e d4 1d b8 3c b4 ed 87 be 60 db e5 3d
       0.16198839 0.02247516 -0.2654854 0.11223483
0003b0 97 3d 94 3d 62 f3 71 3e bb b4 03 be 27 59 1c 3e
       0.0723831 0.23628 -0.12861912 0.15268384
0003c0 2f 3d 5c 3b 07 a0 92 be ed 74 80 3e 35 47 e6 3c
       0.0033605804 -0.28637716 0.25089207 0.028110126
0003d0 84 e0 c2 bd d7 d2 65 bd 97 47 8e 3e 26 3f 88 bd
       -0.09515479 -0.056109276 0.27788994 -0.066526696
0003e0 d2 f9 43 be e8 71 5a 3e 0f db 4a be bd 0a 9a 3e
       -0.19138268 0.21332514 -0.19810127 0.30086318
0003f0 87 82 06 bd 33 44 a5 3e 82 06 5d bd 93 ab 68 be
       -0.032839324 0.32278594 -0.053961284 -0.227217

fc1.bias f4 [32]
000000 37 e5 06 be f5 fa 03 3e f8 ca 09 bd 1b ff 04 be
       -0.13173376 0.12888701 -0.03364083 -0.1298794
000010 af 3c 59 be f7 b3 47 3e 77 7f 2e 3e b3 18 24 3d
       -0.21214555 0.19502245 0.17040811 0.040062618
000020 ba 20 83 3e fb 20 48 3e 35 e5 da bd 84 58 87 3e
       0.25610906 0.19543831 -0.10688249 0.2643472
000030 6f ec 02 3e 0e 91 0b 3e f4 fd 20 be b8 c7 bc bd
       0.12785505 0.13629553 -0.15721875 -0.09217781
000040 3b ae 6c 3e 13 08 40 3e 04 88 0f be 30 41 c0 3d
       0.23113339 0.1875308 -0.1401673 0.093874335
000050 c5 d0 02 be c0 7e 65 3e 64 47 e4 3d d3 48 5f be
       -0.12774952 0.22411633 0.11146429 -0.21805124
000060 5d 93 16 3e f6 bb 8c be 56 5c 43 3e 86 5b 78 bc
       0.14704652 -0.27487153 0.19078192 -0.01515854
000070 19 36 32 be d2 b6 44 be 32 6e 7b bd 57 64 6e be
       -0.17403449 -0.19210365 -0.061384387 -0.23280464

fc2.weight f4 [16, 32]
000000 b4 63 4e 3e 7e 6a 30 3c f2 a9 40 bc e3 4e 34 3d
       0.20155221 0.010767577 -0.011759268 0.044020545
000010 85 f7 b4 bd cf 1f 6f 3d 91 9c e6 bd f9 6d dc 3d
       -0.08836273 0.058379944 -0.112603314 0.10763163
000020 44 82 f4 3d b4 fd e4 3d fa 07 85 3c 44 f9 03 3e
       0.11938909 0.111812025 0.016239155 0.12888056
000030 10 ed c8 3d 44 99 cf bd c6 36 79 bd 22 78 66 3e
       0.09810841 -0.10136655 -0.06084325 0.22506765
000040 72 6d 28 bd a8 c9 24 3e c8 ab eb 3d 04 cc 61 3e
       -0.04112 0.16092551 0.11507374 0.22050482
000050 a0 bb 4a 3d f8 f9 62 3e 2a 91 3c 3e 6e 1f 59 bd
       0.04949534 0.22165668 0.1841475 -0.05300849
000060 27 de 10 3e 85 d1 09 be 04 0f e6 bc 5a 91 fe bd
       0.14147244 -0.13458832 -0.028083332 -0.12430067
000070 8c 48 60 3d a0 a6 48 3c 31 c3 ce bc b7 65 ad bd
       0.054756686 0.012246758 -0.025239559 -0.08466666
000080 a2 f8 22 be c6 6f 07 bd ba 0a f7 bc 70 37 3f 3d
       -0.15915158 -0.03306558 -0.030156482 0.04668373
000090 21 ce 01 bd 7e 56 16 3e 13 8c cc bd 34 aa 59 bd
       -0.03169072 0.14681432 -0.099876545 -0.053140834
0000a0 04 c8 3c be 91 63 a3 bd ec bc 4d bd 19 9e 4c bd
       -0.18435675 -0.07977975 -0.050228998 -0.04995546
0000b0 8b fd 2f 3e f7 2c 25 bd aa 66 0a bd f5 c2 e1 bd
       0.17186563 -0.040326085 -0.033789314 -0.11023513
0000c0 3b 20 ed 3d f9 a1 db bd 14 a2 23 3d c6 d3 e7 3c
       0.11578413 -0.10724253 0.03994949 0.028299224
0000d0 c7 8d 03 be 7c 49 d0 bd 1e e2 c6 3d bc d7 09 be
       -0.12847053 -0.10170266 0.09711097 -0.13461202
0000e0 c0 aa 07 be f5 37 2b 3e 31 0a 12 3e 42 1d 21 3e
       -0.1324873 0.16720565 0.142617 0.15733817
0000f0 b8 88 76 3d 93 05 81 bd e0 29 88 3d de db 13 bd
       0.06018898 -0.06299891 0.06648612 -0.036098354
000100 7f b5 15 3e 1e 54 f1 3d e0 11 10 be ac 6d 2f bd
       0.14620017 0.11783622 -0.14069319 -0.0428292
000110 43 8a cc bd be 62 ca bd 76 14 84 3d c2 f8 27 be
       -0.09987309 -0.09882115 0.06449215 -0.16403487
000120 00 60 4c b8 70 a3 07 be 10 96 35 3c 7f 9c 0f be
       -4.8726797e-05 -0.1324594 0.011083141 -0.14024542
000130 9c fa 12 3d f8 1f f1 bd 6a bd 06 be b3 e1 34 be
       0.03588353 -0.11773676 -0.13158193 -0.17664222
000140 08 80 ba bc 04 27 00 3d 91 97 14 be 73 0a 1a 3e
       -0.022766128 0.03128721 -0.14510943 0.15043049
000150 63 17 2b 3e 64 ea 35 3d 72 54 0f be 34 bb 87 3d
       0.1670814 0.044412985 -0.13997057 0.06627503
000160 30 0a f6 bc 8c 37 81 3d 70 2a 31 bc 87 85 18 3e
       -0.030034155 0.06309423 -0.010813341 0.14894687
000170 4f 64 25 3e 26 aa 0d be e0 22 34 bc 70 5e ad bc
       0.16151546 -0.13834438 -0.010994643 -0.021163195
000180 6d f3 bd bc 34 00 36 be c4 2a c1 bd b0 96 52 bd
       -0.023187364 -0.17773515 -0.09431985 -0.051413238
000190 7b 41 a5 3c b0 b5 84 3d 10 94 eb bd 3d 34 48 bc
       0.020172825 0.06479967 -0.1150285 -0.012219486
0001a0 d9 0c 57 3e a9 29 49 3e 9b 75 4f 3e 39 ec 49 3e
       0.21000995 0.19644798 0.20259707 0.19719018
0001b0 12 13 ff bd 35 a5 15 be 76 98 f0 bd 50 7d a3 bd
       -0.12454809 -0.14613803 -0.117478296 -0.07982886
0001c0 2e 0e 60 bd 04 d9 9c 3d 30 03 00 bd 17 3b 31 3e
       -0.054701023 0.0765858 -0.03125304 0.17307697
0001d0 df 1e 18 3e c9 b2 61 3e b2 2a 76 bd 60 bd 20 bc
       0.14855526 0.22040857 -0.06009931 -0.0098107755
0001e0 08 41 83 3d 92 ad 57 bc 48 b3 26 be b4 af 2d 3e
       0.06408888 -0.013163941 -0.16279328 0.16961557
0001f0 72 3d b1 3d fa 06 27 be 95 2b 77 bd 07 1c 51 3d
       0.08654298 -0.16311255 -0.060344297 0.05105212
000200 44 8d 7a bd 2e 01 47 be 70 b9 c4 bc ac ed 25 be
       -0.061169878 -0.19434044 -0.024014205 -0.16203946
000210 a8 43 88 3c f3 40 12 3e 11 57 80 bd 32 5b b2 bd
       0.016633824 0.14282589 -0.062666066 -0.087088004
000220 d6 70 d5 3d 0c a8 ad bd c1 5a 18 be c5 0b d6 3c
       0.10421912 -0.08479318 -0.1487837 0.026128659
000230 90 9b 22 be e8 16 c8 3d 92 29 d0 3d 76 0c 1f bd
       -0.15879655 0.09769994 0.10164179 -0.038830243
000240 6d 85 27 3d de e0 bc 3d f3 43 f6 3d be 06 32 be
       0.04089873 0.092225775 0.12024679 -0.17385384
000250 90 a0 0d 3d 2a 5e 9e 3d b9 31 21 be 07 b7 32 be
       0.034576952 0.07732804 -0.15741624 -0.17452632
000260 69 73 36 be 99 18 b4 3c c9 9d 29 be 8c ac 0d bd
       -0.17817463 0.021984385 -0.16564097 -0.03458838
000270 52 82 cb 3d a0 e5 95 bc da c4 57 be 97 90 7d bd
       0.09936966 -0.01829797 -0.21071187 -0.06190547
000280 42 8d 3e bd e4 c7 b8 3d ad 5d 01 3e 39 e7 55 be
       -0.046521433 0.09022501 0.1263339 -0.20888986
000290 e0 1d e5 bd d3 84 da bc 64 c4 66 3d 3c ac 0d be
       -0.11187339 -0.026674664 0.056339636 -0.13835233
0002a0 d4 27 0e 3e a4 9b b2 bd 8e f8 a8 bc 6d 79 4c 3d
       0.1388238 -0.08721092 -0.020626333 0.04992049
0002b0 ab a1 ab 3d 9f 0f 33 3e c4 d1 f6 3d 03 f4 3a 3e
       0.08380445 0.17486428 0.12051728 0.18257146
0002c0 fa 25 44 3d 38 05 35 be a7 f3 8c 3b b6 7a 24 3e
       0.04788778 -0.17677772 0.0043015066 0.16062436
0002d0 dc b1 2c 3d f4 71 09 bd 5a ac 35 3e fa 74 a4 3d
       0.042161807 -0.03355594 0.17741528 0.08030124
0002e0 6d ce 1c be ef f4 e9 bd 3e f2 da 3c 0f 8d 00 be
       -0.1531312 -0.114236705 0.026726838 -0.1255381
0002f0 1c 41 d0 bd 94 bd f5 bd 7e a4 dd bd 66 65 f7 3d
       -0.10168669 -0.1199905 -0.1082239 0.12079887
000300 ad 70 a8 3d 38 27 26 be 76 b0 ad bd 87 60 18 3e
       0.08224616 -0.16225898 -0.08480923 0.14880572
000310 d0 ca 00 3d 96 ef 1b be c9 1a 01 bd 66 34 00 3b
       0.031443417 -0.15228114 -0.031519685 0.0019562482
000320 95 5b 4b 3e 26 aa d4 bd 33 0a 5b 3e 18 1c 23 3e
       0.19859155 -0.10384016 0.2139061 0.15928686
000330 25 66 92 bd 0f 72 40 3c 8c 3e 42 3e 43 b8 00 3c
       -0.07148389 0.011745944 0.18969172 0.007856431
000340 4a ef ab bd 77 53 04 bd ab 64 d1 3c 30 7b a2 bd
       -0.0839525 -0.03230616 0.025560698 -0.079336524
000350 c6 f5 eb 3d a4 ac 47 3e 31 64 e7 bd e1 8f 32 3e
       0.11521487 0.19499451 -0.11298407 0.17437698
000360 83 6e f5 3d f8 cc 77 bd 08 ec 2a 3d 0f 37 c7 bd
       0.11983969 -0.060498208 0.041729003 -0.097272985
000370 a0 cd f3 bb 12 1f 84 3d 33 29 46 be 0b 6d e5 bd
       -0.007440284 0.06451239 -0.19351654 -0.11202439
000380 06 fb 57 3e 5f 1c 08 be d3 ba 38 be ab 35 88 bd
       0.21091852 -0.13292073 -0.18040018 -0.06650861
000390 04 b5 bd bd d1 d4 1b be c6 35 8f 3d e4 0f c1 bc
       -0.092630416 -0.15217902 0.06992678 -0.023567148
0003a0 5d 5a 8b bb e3 3c 1c 3e a5 ec 06 3e 02 67 37 3d
       -0.0042527155 0.15257601 0.1317621 0.04477597
0003b0 1d 76 2d be 7d 99 4e be 37 4e 52 3d 61 95 25 3d
       -0.16939588 -0.20175739 0.051344123 0.040425662
0003c0 f0 2e 96 bc e6 20 4d 3e 47 2b 2f be 67 42 8c 3d
       -0.018332928 0.20032081 -0.17106353 0.06848603
0003d0 80 82 f5 3a 03 c3 0a 3e d1 6f 48 3e 18 45 f3 bd
       0.0018730909 0.13550954 0.19573905 -0.11878413
0003e0 4d 4e 5b 3c 3c a8 8b 3d 5b 72 e8 bd 5f bc a8 3d
       0.013385368 0.068191975 -0.113499366 0.08239054
0003f0 6a 2e d6 3d ec 00 1d 3d b6 0b 44 be ff 0a f3 3d
       0.104580715 0.038330957 -0.19145092 0.11867332

fc2.bias f4 [16]
000000 da aa 33 3e a3 63 4e 3e 31 f9 1b be 7f d0 9f 3b
       0.17545643 0.20155196 -0.15231778 0.0048771496
000010 e6 be 11 3d 17 da 83 bd 3d 4d 83 bc 13 f5 3a 3e
       0.035582446 -0.06438082 -0.016028041 0.18257551
000020 3d 2e 5b 3d 70 4a 38 bd f4 cb 17 bd 7a 53 2d 3e
       0.053510893 -0.044992864 -0.03705974 0.16926375
000030 b7 59 d8 bb 49 aa a4 3d d6 39 9c 3c 89 c1 1a 3d
       -0.0066024917 0.08040292 0.019070547 0.037782226

fc3.weight f4 [1, 16]
000000 17 3f e0 bd 28 3b 89 3e 68 94 64 3d 19 15 c5 bd
       -0.109495334 0.26802945 0.055805594 -0.09623165
000010 f7 e3 19 be 61 4e 79 be e3 4d 80 be fa f1 bf bd
       -0.15028368 -0.24346305 -0.25059423 -0.09372325
000020 ea 99 41 3e ff 2c c2 bd dc 76 b9 bd 08 72 e4 3d
       0.1890637 -0.094812386 -0.09055874 0.11154562
000030 ed e2 36 3e 53 34 20 3e 25 1f 71 be c1 63 67 3e
       0.17860003 0.1564496 -0.23547037 0.22596647
